Code/RL_adult_policy_model.pth (torch, 12062 bytes, 5 tensors)

model.0.weight f4 [64, 1]
0.948869 -0.61153615 0.8196533 -0.63081336 0.36032963 0.5221006 -0.2354635 -0.19923735
-0.59640586 -0.6231408 0.9811686 0.45368055 0.36031145 -0.74697673 0.3773778 -0.6136446
-0.90911174 0.26173118 0.7812559 -0.85326755 -0.95441973 -0.69693434 -0.73834443 -0.15874815
-0.7969632 0.33335733 0.38554412 0.05349128 0.048777223 -0.1803062 0.62723756 -0.8827262
-0.6417146 -0.9435612 0.8180107 -0.26238966 0.69358706 0.8457712 0.59400034 -0.086601496
0.25541025 -0.181952 0.2305234 0.56625617 -0.66071963 -0.53399074 -0.9557712 -0.12695336
0.97979695 0.27009243 -0.60259426 0.6779303 0.2679489 0.9800501 0.99631107 0.06003447
-0.16516542 0.7333016 -0.5947262 -0.2672186 -0.8923894 -0.14746869 0.88343716 0.40534645
00000000: 14e9 723f a28d 1cbf ccd4 513f fc7c 21bf
00000010: 207d b83e 63a8 053f 581d 71be e004 4cbe
00000020: 0eae 18bf 2886 1fbf de2d 7b3f d148 e83e
00000030: be7a b83e de39 3fbf aa37 c13e d017 1dbf
00000040: 8cbb 68bf a101 863e 6300 483f be6f 5abf
00000050: da54 74bf 4a6a 32bf 2404 3dbf e08e 22be
00000060: c805 4cbf d0ad aa3e 0a66 c53e ac19 5b3d
00000070: a0ca 473d 30a2 38be a492 203f 58fa 61bf
00000080: 6847 24bf 3a8d 71bf 2669 513f f057 86be
00000090: ec8e 313f 7684 583f 6810 183f 205c b1bd
000000a0: 22c5 823e a051 3abe 530e 6c3e 2af6 103f
000000b0: ec24 29bf 9eb3 08bf 6cad 74bf 1000 02be
000000c0: f9d3 7a3f 8e49 8a3e 9e43 1abf d78c 2d3f
000000d0: 9930 893e 90e4 7a3f 3e0e 7f3f b4e6 753d
000000e0: 2021 29be a7b9 3b3f fa3f 18bf e0d0 88be
000000f0: a273 64bf 0802 17be f028 623f 9289 cf3e

model.0.bias f4 [64]
0.6310979 0.8543297 -0.18603417 -0.4260701 0.07776312 0.62684274 0.37408185 0.42346954
0.0062485933 0.85436 0.24612014 0.25661677 0.73395014 -0.29366457 0.5379405 0.75058854
0.14191103 -0.52867264 0.98278624 -0.41730094 -0.029242277 -0.16803765 0.88095593 0.962587
0.051918507 -0.13175263 0.8775429 0.048481856 -0.9899126 -0.6578889 -0.32156616 -0.13552713
0.29743004 -0.3895111 -0.66368747 -0.8652214 0.7343026 -0.023786962 -0.796887 0.054014206
0.94206685 0.5920639 0.47263625 -0.8319222 0.68731713 0.6946213 0.2053051 0.6431867
-0.64509845 -0.93543196 -0.384673 0.44593513 0.04437762 -0.7166667 0.47287798 -0.33780396
0.90686524 0.9591221 -0.020819783 -0.8512118 -0.042090297 -0.35580194 -0.7141585 -0.11631851
00000000: a28f 213f 5ab5 5a3f be7f 3ebe dc25 dabe
00000010: 4542 9f3d c478 203f a887 bf3e 00d1 d83e
00000020: 00c1 cc3b 56b7 5a3f eb06 7c3e 4663 833e
00000030: 28e4 3b3f 345b 96be 78b6 093f 9226 403f
00000040: 2051 113e 1757 07bf e197 7b3f 78a8 d5be
00000050: 808d efbc 1012 2cbe 5486 613f 1a6c 763f
00000060: 80a8 543d 29ea 06be a7a6 603f e994 463d
00000070: ea6a 7dbf 686b 28bf 52a4 a4be a0c7 0abe
00000080: c048 983e 006e c7be 6ce7 29bf 267f 5dbf
00000090: 41fb 3b3f e0dc c2bc c900 4cbf 003e 5d3d
000000a0: 4b2b 713f 8091 173f 61fd f13e daf8 54bf
000000b0: 04f4 2f3f b4d2 313f 803b 523e e2a7 243f
000000c0: 2c25 25bf 7878 6fbf dcf3 c4be 9c51 e43e
000000d0: 4fc5 353d 7877 37bf 101d f23e a4f4 acbe
000000e0: 5228 683f 0789 753f 408e aabc 04e9 59bf
000000f0: e066 2cbd ac2b b6be 17d3 36bf 6638 eebd

model.2.weight f4 [32, 64]
-0.03316876 -0.086268276 -0.11979149 0.063535124 0.008515846 0.10950493 0.099654034 0.061278686
-0.025296554 0.009382099 0.1113954 -0.092707865 0.08577403 0.0953459 -0.03769788 0.038772
-0.04687658 -0.12738466 0.039088223 0.09911503 0.04662323 -0.030750021 0.10868578 -0.043420598
-0.065892845 -0.059729435 -0.044281594 -0.13306758 0.10241977 -0.058678538 -0.06883082 0.028697059
0.091517955 0.085546 -0.03290936 0.00963515 -0.099986345 -0.05090788 0.05146059 -0.0024802983
0.047386754 0.08633445 -0.11328221 -0.009592702 -0.017508224 0.023964584 -0.023006707 0.042860985
0.055298593 0.028824419 -0.107465416 0.066175126 0.05420091 0.079215415 -0.06165716 -0.1343273
0.10960111 0.0019237524 -0.028532848 -0.058384106 -0.032245874 -0.0972261 0.09740515 -0.022726392
-0.069554925 0.022245273 0.0038047284 -0.12440902 -0.10755058 -0.09134632 0.05675094 -0.043855652
0.10718961 0.042615533 0.07866086 0.11864528 -0.08615674 -0.046686962 0.116619945 -0.05593179
-0.038527086 0.1153751 0.076091856 -0.067922026 -0.10450648 0.028556362 -0.1117903 0.08965869
0.12046832 0.02726759 0.02382113 0.08928496 0.002772063 -0.10815844 -0.0681493 -0.05074705
0.018229663 0.07379979 -0.054258585 -0.05849026 0.03905946 -0.019828573 -0.0068552345 -0.12092294
-0.044524297 0.054894835 0.10489757 -0.08685233 0.02346924 0.03332962 0.065892845 0.06500897
0.031095818 0.09253876 -0.059033602 -0.011412665 0.08696088 0.04989712 -0.03806044 0.012264892
0.025479525 -0.046804115 0.082359895 -0.086641714 -0.07271655 0.09112562 -0.080421194 -0.027372941
-0.0881759 -0.022221968 0.05365235 0.048673496 -0.06831829 0.06390319 0.06305614 0.07204941
-0.025187373 0.033355877 0.08488119 -0.00039119387 -0.0055615236 -0.008343875 0.107993565 -0.03793174
-0.078178376 -0.018302025 -0.0011588354 -0.081793204 -0.06648393 -0.0884908 0.07615788 -0.092291474
-0.027155742 0.09136151 0.076354034 0.013398448 -0.0019281304 -0.008931845 -0.050495185 -0.032356396
0.116033435 -0.08059263 -0.11246323 0.07376759 0.053250995 -0.038454328 0.104733706 -0.06295735
-0.06375371 0.010727257 -0.110761456 -0.034400627 -0.077537805 0.0567891 0.024515182 -0.021934077
0.0627989 -0.11759439 -0.046875775 -0.123241484 -0.08894614 0.08665926 -0.02982142 -0.021323156
0.013824299 0.10781665 -0.0035731941 0.084647655 -0.055665314 0.011598229 -0.065853104 -0.12640311
0.043900497 0.018350184 -0.06423795 -0.016362712 0.03357483 0.09151109 -0.026049256 0.10885124
0.09223378 -0.12487592 0.11336342 0.063531905 0.078773245 0.09281789 0.012537936 0.003554359
-0.0339095 -0.11448902 0.10433189 -0.10229644 0.006070316 -0.108197704 0.008612201 -0.06618449
-0.11241625 -0.103781454 0.06533691 -0.04199078 -0.05787533 0.0056212246 -0.082073584 0.106788784
0.0992201 0.018897653 0.12741491 -0.09588069 0.04494884 -0.083012804 0.11243686 -0.0743192
0.03868345 -0.028347299 0.03483395 0.011727164 0.055494547 -0.07731201 -0.050165415 -0.10158634
0.009869652 0.006753587 -0.019792393 -0.050324053 -0.10290735 0.08575857 0.089487284 0.0130499285
-0.10198222 -0.048913397 0.11832799 0.040988952 0.06411624 0.05670193 -0.03502015 0.08944279
00000000: f7db 07bd 6cad b0bd 3e55 f5bd b41e 823d
00000010: 0c86 0b3c 1f44 e03d 6a17 cc3d 5cff 7a3d
00000020: b83a cfbc 60b7 193c 4523 e43d 9fdd bdbd
00000030: 4baa af3d b644 c33d 1869 1abd 64cf 1e3d
00000040: a801 40bd 2071 02be f91a 203d d2fc ca3d
00000050: 00f8 3e3d 78e7 fbbc a696 de3d ccd9 31bd
00000060: d4f2 86bd daa6 74bd 9e60 35bd de42 08be
00000070: 75c1 d13d e858 70bd 2cf7 8cbd 1816 eb3c
00000080: c46d bb3d be32 af3d f7cb 06bd c0dc 1d3c
00000090: a4c5 ccbd c884 50bd 57c8 523d 808c 22bb
000000a0: 9d18 423d 1ed0 b03d 8100 e8bd b52a 1dbc
000000b0: 686d 8fbc 6051 c43c 9078 bcbc 008f 2f3d
000000c0: c780 623d 3021 ec3c d416 dcbd d386 873d
000000d0: c601 5e3d b13b a23d 388c 7cbd 198d 09be
000000e0: 8c76 e03d 6b26 fc3a b8bd e9bc 2c24 6fbd
000000f0: 4014 04bd 7a1e c7bd 5a7c c73d b32c babc
00000100: d072 8ebd b83b b63c c058 793b 28ca febd
00000110: 7a43 dcbd c813 bbbd ac73 683d fca1 33bd
00000120: 3a86 db3d a08d 2e3d f218 a13d 4cfc f23d
00000130: f272 b0bd d43a 3fbd 70d6 ee3d bc18 65bd
00000140: 94ce 1dbd c849 ec3d 0cd6 9b3d b41a 8bbd
00000150: 7e07 d6bd 08ef e93c 50f2 e4bd fa9e b73d
00000160: 18b8 f63d 4860 df3c 8824 c33c 08db b63d
00000170: 80ab 353b 2c82 ddbd dc91 8bbd 24dc 4fbd
00000180: 6056 953c 5824 973d 403e 5ebd 7c93 6fbd
00000190: d0fc 1f3d 886f a2bc e0a1 e0bb 72a6 f7bd
000001a0: 1c5f 36bd 68d9 603d 8ad4 d63d a2df b1bd
000001b0: 9042 c03c a484 083d d4f2 863d 6c23 853d
000001c0: a8bc fe3c f684 bd3d 38cd 71bd 30fc 3abc
000001d0: 8c18 b23d ec60 4c3d 44e5 1bbd b0f2 483c
000001e0: 70ba d03c acb5 3fbd 4eac a83d 3671 b1bd
000001f0: 6aec 94bd 12a0 ba3d deb3 a4bd 383d e0bc
00000200: 9195 b4bd d80a b6bc 91c2 5b3d dc5d 473d
00000210: 76ea 8bbd addf 823d 9423 813d a48e 933d
00000220: c055 cebc 2ca0 083d 30d6 ad3d 2719 cdb9
00000230: 713d b6bb c0b4 08bc bb2b dd3d 505e 1bbd
00000240: fc1b a0bd 21ee 95bc 10e4 97ba 3283 a7bd
00000250: ba28 88bd aa3a b5bd aaf8 9b3d 5003 bdbd
00000260: b875 debc be1b bb3d 815f 9c3d 2a85 5b3c
00000270: 52b9 fcba e056 12bc 0ad4 4ebd 2488 04bd
00000280: f0a2 ed3d c00d a5bd 1f53 e6bd 7613 973d
00000290: b71d 5a3d 4982 1dbd a07e d63d c8ef 80bd
000002a0: 4e91 82bd 60c1 2f3c e7d6 e2bd ace7 0cbd
000002b0: 24cc 9ebd b09b 683d 10d4 c83c 18af b3bc
000002c0: b69c 803d 54d5 f0bd d000 40bd 0866 fcbd
000002d0: 6529 b6bd 697a b13d 0d4c f4bc e6ad aebc
000002e0: 507f 623c face dc3d 402c 6abb c05b ad3d
000002f0: 5001 64bd 8006 3e3c fedd 86bd d16f 01be
00000300: 02d1 333d 2053 963c 308f 83bd 180b 86bc
00000310: c385 093d 2b6a bb3d 4065 d5bc 66ed de3d
00000320: 10e5 bc3d f2be ffbd 152b e83d 041d 823d
00000330: de53 a13d 4e17 be3d ea6b 4d3c 40f0 683b
00000340: b0e4 0abd 3879 eabd f5ab d53d cc80 d1bd
00000350: 80e9 c63b c296 ddbd 301a 0d3c bc8b 87bd
00000360: 7e3a e6bd 5f8b d4bd 5ccf 853d 86fe 2bbd
00000370: af0e 6dbd 4032 b83b 3216 a8bd 14b4 da3d
00000380: e833 cb3d 40cf 9a3c 0e79 023e 185d c4bd
00000390: 461c 383d 9e02 aabd 4c45 e63d aa34 98bd
000003a0: 8a72 1e3d 9838 e8bc 0bae 0e3d 4a23 403c
000003b0: 404e 633d c255 9ebd 407a 4dbd 800c d0bd
000003c0: 52b4 213c 324d dd3b a823 a2bc 9820 4ebd
000003d0: 17c1 d2bd 30a2 af3d 1c45 b73d 5ecf 553c
000003e0: 0edc d0bd 6a59 48bd f255 f23d 08e4 273d
000003f0: 604f 833d 4840 683d 4a71 0fbd c82d b73d

model.2.bias f4 [32]
0.08990232 -0.017170474 -0.028204788 -0.068933554 -0.0004350543 -0.0059724897 -0.07772429 -0.0046928674
0.015662193 -0.06984572 0.11102465 0.020121261 -0.06487304 -0.034219597 0.121212766 0.04422684
0.026813999 -0.056615777 0.11038752 0.058846038 0.034049034 0.09717274 -0.020938458 0.017552987
-0.06228189 -0.09987965 -0.06906229 -0.05547246 0.080871195 -0.11558999 -0.01332808 0.055480942
00000000: b51e b83d 18a9 8cbc ba0d e7bc 092d 8dbd
00000010: 0018 e4b9 e0b4 c3bb ea2d 9fbd a0c6 99bb
00000020: 004e 803c 460b 8fbd e460 e33d 58d5 a43c
00000030: 28dc 84bd d929 0cbd 663e f83d 3427 353d
00000040: 08a9 db3c f2e5 67bd da12 e23d 8b08 713d
00000050: 0077 0b3d 8002 c73d 2187 abbc 48cb 8f3c
00000060: 4c1b 7fbd b48d ccbd 8870 8dbd 1737 63bd
00000070: cc9f a53d 72ba ecbd 055e 5abc fc3f 633d

model.4.weight f4 [1, 32]
0.1280659 0.048137832 0.013287524 -0.07901191 -0.06635648 0.1727939 0.1671955 -0.091373354
0.09624496 -0.013657686 -0.085399136 0.16894701 0.13746434 -0.041149445 0.13104014 0.0910058
-0.032776825 -0.09433438 -0.046512797 -0.17685452 0.0991261 -0.14973098 -0.123614945 -0.013246712
0.01964315 0.12536801 -0.020956362 0.027852623 -0.16648419 -0.043036103 -0.15114607 0.023741573
00000000: b523 033e 2d2c 453d eab3 593c ffd0 a1bd
00000010: e8e5 87bd e2f0 303e 4c35 2b3e f421 bbbd
00000020: 141c c53d 7dc4 5fbc bee5 aebd 7200 2d3e
00000030: 74c3 0c3e 528c 28bd 632f 063e 4061 ba3d
00000040: fe40 06bd 6232 c1bd 3484 3ebd 5a19 35be
00000050: a002 cb3d 1453 19be d529 fdbd bd08 59bc
00000060: acea a03c 7960 003e adac abbc 2f2b e43c
00000070: d57a 2abe a046 30bd 09c6 1abe b07d c23c
