Code/RL_adolescent_policy_model.pth (torch, 12181 bytes, 5 tensors)

model.0.weight f4 [64, 1]
00000000: 61d0 e93e 301d 57be 6674 5f3e 94dc 313f
00000010: 4a5b dd3e 7c64 debe 48b0 64bf a6b7 67bf
00000020: 68ea c6be 385c e4be 3b8c 273d bc3e 143e
00000030: 986b 513e b424 733f 6c8f 1a3f f2e0 2c3f
00000040: f8f9 683f 4abd 44bf 40a3 21be 0ad9 4fbf
00000050: 4254 6e3e a037 72bf 808d ccbc 0cd3 dabe
00000060: 10b7 5a3f a01f 84be 84de f33d 9eae 56bf
00000070: 8730 403f 78b1 55be 2c7a 95be 4a49 60bf
00000080: 942d 70bf 3c9d 803d 98b8 08bf 5b6f 043e
00000090: 8cf4 28bf 9140 3b3f d06d 49be a064 773e
000000a0: 12d9 16bf 1457 283f d673 0b3f 0c5c 7fbf
000000b0: 3690 0cbf 5cf0 08bf c099 4e3e 30a2 393f
000000c0: c03d 5fbe bc10 7abf aa5b 72bf 24b8 51bf
000000d0: 9ab3 71bf 04fa a8be 9c80 e9be d002 87be
000000e0: fde2 e93d ae4a 9e3e e80a d4be e215 6f3d
000000f0: a001 4cbe 1cff 213f e85f 54be 2feb 9a3e
0.45666793 -0.21007228 0.21821746 0.694772 0.4323371 -0.43436038 -0.89331484 -0.905146
-0.38850713 -0.44601607 0.04090522 0.14477056 0.204512 0.9497788 0.60375094 0.6753074
0.9100642 -0.7685133 -0.15784931 -0.8119055 0.2327433 -0.94616127 -0.024969816 -0.4273914
0.8543558 -0.25805378 0.11907676 -0.83860195 0.75074047 -0.2086848 -0.29194772 -0.8761183
-0.93819547 0.0627999 -0.5340667 0.12933104 -0.6599815 0.73145396 -0.19670796 0.24159479
-0.58924973 0.6575787 0.54473627 -0.9974983 -0.5490755 -0.5349176 0.20175838 0.72513103
-0.218009 -0.97681785 -0.9467112 -0.819216 -0.94414675 -0.33003247 -0.45605934 -0.26369333
0.11420248 0.3091635 -0.4141457 0.05837048 -0.19922495 0.6327989 -0.2073971 0.30257556

model.0.bias f4 [64]
00000000: 28f5 c93e e4f0 87be 07ae 05bf 17a3 6ebf
00000010: a7d9 6abf 7082 41bf c2bb 02bf 2ad8 79bf
00000020: 74aa 163f 8053 09bc f14f f03e 15c8 243f
00000030: 44b8 153e ee82 493e 31c9 ddbe 13f6 4b3f
00000040: c26a c73e 1889 47be a0bf ef3d 0021 86be
00000050: 955a b3be 7e30 323f 58b4 a4be 30e9 72be
00000060: 5334 583f 942a 69bf 80ef f5be 9a4b 663f
00000070: 3411 41bf 2e2f 3dbf 72cf 18bf 5c1d cd3e
00000080: 40ad cc3c ab36 40be 404b e33d 0159 713f
00000090: 003e 1c3f ed36 39bf acea 033f d22e e4be
000000a0: 6003 cf3d 5f88 e33e 476a 083f fc6d 27bf
000000b0: 0e33 003f 8e50 09bf b58a 56bf daba 71bf
000000c0: 88c3 aebe 809f 06bd ac9d fabe 147a 4f3f
000000d0: a854 74be 8212 4cbf 3814 09bf a8b0 5fbf
000000e0: 9c41 2b3f e511 50bf 30a4 81be 5dc1 213f
000000f0: 605e a9be f42c 46bf 1827 613e 4994 5b3f
0.39444852 -0.26550972 -0.5221867 -0.93217605 -0.9173836 -0.75589657 -0.51067746 -0.97595465
0.5885384 -0.008381724 0.4693599 0.643678 0.14621073 0.19678852 -0.4331756 0.79672354
0.38948637 -0.19485891 0.117064714 -0.26197052 -0.35030046 0.69605243 -0.3216884 -0.23721766
0.8445484 -0.91080594 -0.48034286 0.8995911 -0.75416875 -0.73900115 -0.59691536 0.40061462
0.024984956 -0.18770854 0.11098337 0.94276434 0.61032104 -0.72349435 0.51529956 -0.4456697
0.101080656 0.4443998 0.53287166 -0.654022 0.50077903 -0.5363854 -0.838054 -0.9442574
-0.34133554 -0.032866955 -0.4894842 0.8104565 -0.23860419 -0.7971574 -0.53546476 -0.8737893
0.66896987 -0.81277305 -0.25320578 0.63185674 -0.33079815 -0.77412343 0.2198757 0.8577314

model.2.weight f4 [32, 64]
00000000: 7201 493c c48d e63d a671 7fbd b9fc b23d
00000010: 4257 c6bd 00f0 54bd 9e18 893d 4018 693c
00000020: d463 f63d 682e a93c 9464 8bbd ebd5 9cbd
00000030: 2272 573c 0202 ed3c e9a1 f2bb b809 afbd
00000040: dd35 e33d bc09 5cbd 8429 cb3d 4456 4a3d
00000050: 191e dabd 54f8 803d 0ce5 adbd 28d7 c13c
00000060: e788 7fbc 6825 d63d 1002 09be 8814 743d
00000070: 8410 17bd b8c0 c1bc ec65 163d d83d b43d
00000080: 808f 0ebb bf2e 07be 9e6b d4bd 533a 30bd
00000090: 9a30 8bbd ef95 c4bc 28c8 d1bd 4469 ee3c
000000a0: e008 a7bd 0d3d b33d c4ba b9bd 743f bf3d
000000b0: ec83 483d 6a3e 90bd 7606 fbbd 1a6f 153b
000000c0: 6050 e03d 2eb0 e33d 7027 713d 2a86 e8bd
000000d0: d04a 55bd 40f3 58bc 9c53 743d b200 f03d
000000e0: 9095 81bd e67d da3d 3439 be3d 9657 97bc
000000f0: e470 6e3d c330 ad3d a888 9fbc b06b 09be
00000100: f0f3 d5bc 3428 9dbd f6de 833d 2c5b 2fbd
00000110: acbc 16bd 78f2 fcbd 8003 cabc 2015 e53c
00000120: d86b 1ebd 00b8 2d39 b209 83bd a694 d6bd
00000130: 8059 ecbd 2876 f83c 50f6 7ebc 902a b0bd
00000140: 701c 00bd 0878 df3d 0a8b b43d 70fb d8bc
00000150: c80a 18bd d8e5 46bd 3807 e73c 1617 fdbd
00000160: 58fc c5bc ce27 e7bd 4641 d5bd c038 bfbb
00000170: c2e7 b9bd f075 2dbc 9ae3 ccbd 6064 523d
00000180: 1076 333d b47d ebbd 184d 77bd 0c11 20bd
00000190: bcbe 58bd c22f f43d 40e3 f63c a8cb ef3d
000001a0: 2699 8b3d 0c38 843d 141d bebd 749f 723d
000001b0: 6ce1 1f3d 505d 7ebc acc0 92bd 20ba 9abc
000001c0: e4f4 3d3d 065e cc3d e8d0 fcbc a477 d63d
000001d0: f822 f6bc 8684 febd 7628 a23d ce3a b7bd
000001e0: fce1 143d 96d7 dc3d de88 c4bd e808 f1bc
000001f0: f08b 80bd 5a57 abbd 0c4e 903d ac60 183d
00000200: ac01 7c3d 96de c6bd 805a fa3b 8057 c2bc
00000210: 0066 1e3b 80dc ffba 78c6 8e3d c096 acbb
00000220: 7c1c b5bd e817 47bd 6a1e f2bd 5ad1 e43d
00000230: 20f3 e6bb a0bc b9bb 7c22 8c3d f684 bdbd
00000240: 145a bebd b6ad e73d c82f e83d e4d5 7abd
00000250: d49e 413d 5c4d 763d 4806 7bbd 586d 0fbd
00000260: b001 9c3c 2c49 f6bd 60e8 e0bc 649d 17bd
00000270: 304e 60bd 0076 23ba 5244 da3d d293 cdbd
00000280: 3888 1abd 2888 903c 1a5a fe3d 7cc5 e3bd
00000290: a6ea f6bd f83e febd 48ee 31bd 2a9b ec3d
000002a0: da40 c2bd ba57 f33d aa35 933d 8ae4 b0bd
000002b0: b0f4 2e3c d8b3 de3d 1071 633d 92ca 9d3d
000002c0: 16e4 e43d 74cf 30bd f21b 813d a05e f53b
000002d0: 38b9 a0bd 80bf b3bb 58cf de3d 50a8 703c
000002e0: e0f1 dc3b acf0 5fbd fc01 ab3d 9a3b b83d
000002f0: dc6f 45bd b83e acbd 0021 553b ecae 67bd
00000300: c468 c7bd ecf1 963d 00da 043b 1223 84bd
00000310: 8056 84bc a499 1e3d b470 113d 20c3 c7bc
00000320: 9048 62bc f4fa fbbd d83e a6bc 5c6a f63d
00000330: f8cb 903c 3097 f8bd fe99 ffbd e49e a4bd
00000340: f0e1 12bd 1a67 dd3d c48e 00bd 720e 9cbd
00000350: c0e8 cc3b a08a eebd b677 ca3d cef7 a43d
00000360: ac9e 71bd 54f3 abbd 20aa cebd 10d5 41bd
00000370: 6c2a f23d 4cab 2e3d caaa dd3d a03d ed3d
00000380: 506f b9bd a028 3cbd 0a77 babd 0cdd 23bd
00000390: 42c4 98bd 989d 4e3d 10af 3c3c d0d2 d8bc
000003a0: cca0 d03d 4823 9fbc cc4c 26bd 1203 aa3d
000003b0: 42e3 eabd 9493 033d 602c 7d3c a83b 733d
000003c0: bc52 e5bd 00ca f2bd 6088 543d 183e fbbd
000003d0: 7074 143d daa7 8ebd f298 d3bd a2f1 a5bd
000003e0: 4ae7 a43d 3a3a b93d 2235 c5bd 60ca c73b
000003f0: aab6 81bd a0f3 fabc 489a fe3d d024 f9bc
0.012268411 0.112575084 -0.062364243 0.08739609 -0.09684612 -0.051986694 0.066941485 0.014226973
0.120307595 0.020652011 -0.06806293 -0.07657989 0.01314977 0.028931621 -0.007404555 -0.085467756
0.11094258 -0.05372022 0.09920028 0.049398676 -0.10650272 0.06297365 -0.08490953 0.023662165
-0.015596605 0.104563534 -0.13379693 0.059589893 -0.036880985 -0.023651466 0.036718294 0.08800858
-0.0021753013 -0.13201426 -0.10372089 -0.043024372 -0.067963794 -0.023997275 -0.10243255 0.029102929
-0.0815599 0.08751879 -0.09068826 0.093382746 0.048953936 -0.070431545 -0.12257092 0.0022801817
0.1095283 0.11117588 0.0588755 -0.11353715 -0.0520733 -0.013241589 0.05965005 0.117188826
-0.06327355 0.106685445 0.092882544 -0.018474381 0.05821313 0.08456566 -0.019474342 -0.13419986
-0.026117295 -0.07673684 0.06439011 -0.042811558 -0.036801025 -0.12350935 -0.024659872 0.027964175
-0.038677067 0.00016567111 -0.063983336 -0.10477571 -0.11540508 0.030329779 -0.015561655 -0.08601868
-0.03127712 0.10911566 0.08815582 -0.026487082 -0.037119657 -0.04855904 0.028201684 -0.12357919
-0.024168178 -0.11286889 -0.104128405 -0.0058356225 -0.090774074 -0.0105872005 -0.10004349 0.051365256
0.043813765 -0.11498585 -0.060376257 -0.039078757 -0.052916273 0.119231716 0.030137658 0.11708766
0.0681632 0.064560026 -0.0928289 0.059234098 0.03903334 -0.015525177 -0.071656555 -0.01888758
0.046376124 0.09978871 -0.030861333 0.104720384 -0.030045971 -0.124276206 0.079178736 -0.08946763
0.036348328 0.10783307 -0.09596418 -0.029423192 -0.06276691 -0.0836627 0.07046136 0.03720157
0.061525032 -0.09710424 0.007640183 -0.023723364 0.0024169683 -0.001952067 0.06971449 -0.0052669942
-0.088433236 -0.048606783 -0.11822207 0.11172743 -0.0070480257 -0.005668238 0.06842515 -0.09253876
-0.09294525 0.113124296 0.113372386 -0.06123914 0.04727061 0.06013237 -0.061285287 -0.035016388
0.019043773 -0.12025675 -0.027454555 -0.037015334 -0.054762065 -0.000623554 0.10657562 -0.1003796
-0.037727565 0.01764305 0.12419529 -0.111216515 -0.120564744 -0.12414354 -0.043440133 0.11553033
-0.09485026 0.11881967 0.0718797 -0.0863734 0.010678455 0.10874146 0.055527747 0.07704653
0.111763164 -0.043166593 0.06304158 0.007488087 -0.07847828 -0.005485475 0.108793914 0.014688566
0.006742701 -0.054672882 0.08349988 0.08995743 -0.04820238 -0.084104 0.003252089 -0.056563303
-0.09736779 0.07370362 0.002027154 -0.06452002 -0.016154528 0.038720742 0.035507873 -0.024385035
-0.013811246 -0.12303725 -0.020293638 0.12032005 0.017675385 -0.12138212 -0.124805436 -0.080381185
-0.035860002 0.10810681 -0.031386152 -0.07619943 0.006253332 -0.11647534 0.09886114 0.080550775
-0.058989212 -0.083960205 -0.100910425 -0.047322333 0.118244976 0.04264383 0.10823591 0.1158402
-0.09054434 -0.04593718 -0.09104736 -0.04000573 -0.07459308 0.05044326 0.0115163475 -0.02646771
0.101869196 -0.019426003 -0.040600583 0.08301367 -0.11469127 0.032123163 0.015452474 0.059383065
-0.11197421 -0.11854935 0.05188787 -0.12267703 0.036243856 -0.06965609 -0.103319064 -0.081027284
0.080519274 0.09044309 -0.09629275 0.006097123 -0.063336685 -0.030633748 0.124317706 -0.030413061

model.2.bias f4 [32]
00000000: 419f 723a 9003 97bc 9c70 a63d 54a4 97bd
00000010: 38da c6bc e35a a6bd 82da 923c 3745 9fbd
00000020: 8810 d83c 3a47 40bd 5e2a 87bd 66aa 90bd
00000030: 2c7d 79bd 4762 d03d 01f6 033d c925 8bbd
00000040: ac2b 2c3d c964 df3d 7807 683d 9988 d93d
00000050: 9885 b73c 9071 e93d b020 113d 1fce 7bbd
00000060: d5fb e43d 31ad c43a f064 4d3d d9e9 af3d
00000070: 542c 08bd 2a67 063d 8695 b2bd 389b dbbd
0.0009255298 -0.018434316 0.08126947 -0.0740439 -0.024273977 -0.08122804 0.017926458 -0.077768736
0.02637507 -0.046942927 -0.06599878 -0.07063751 -0.06091039 0.10174995 0.03221703 -0.06794316
0.042033836 0.10907895 0.056647748 0.10621757 0.02240257 0.113986135 0.035431564 -0.06147587
0.11180846 0.0015005228 0.05014509 0.08589525 -0.0332454 0.03281323 -0.087199256 -0.10722965

model.4.weight f4 [1, 32]
00000000: 76e4 fd3d 9fd5 d93d f43a 98bd 17a8 08be
00000010: a701 32be a00d 95bd 3a5a e53c 6940 36bd
00000020: 0afb debd 631c 2dbd 324f 0abe d882 af3d
00000030: 67ab d33c 26c3 7fbd 26e2 3ebe 25f8 0f3e
00000040: 233b e23d eb34 f2bd 0f73 d73d 3e26 6dbd
00000050: 7cdb 213d 528d 8dbc cc9a c93c 53e7 dcbc
00000060: 8d3c bcbc d039 c3bc 4635 943d 3a83 aabc
00000070: 2f82 23be 25d0 1a3e e904 c53c 710c 2cbc
0.12397091 0.10636448 -0.074331194 -0.13345371 -0.17383443 -0.072779894 0.027997125 -0.04449502
-0.10887726 -0.0422634 -0.13506773 0.08569878 0.025838567 -0.062441967 -0.18640956 0.14059503
0.11046436 -0.118264996 0.105199926 -0.0578978 0.039515957 -0.0172793 0.024609946 -0.026965773
-0.022978092 -0.023831278 0.072367236 -0.020814527 -0.1596763 0.15118463 0.024050193 -0.010501013
