Code/RL_child_policy_model.pth (torch, 12062 bytes, 5 tensors)

model.0.weight f4 [64, 1]
000000 26 10 5a 3f 1f f6 12 3f 14 be 37 3f 16 42 46 bf
       0.8518089 0.574068 0.7177441 -0.7744459
000010 a9 b3 c4 3e 18 bb 5c be c0 dd cf 3e 2e a0 62 bf
       0.3841832 -0.21555746 0.4059887 -0.88525665
000020 65 71 7f 3e 8c 8c c4 be 3c 3b 64 bf fc 91 26 bf
       0.249456 -0.3838848 -0.89152884 -0.65066504
000030 c4 e9 dc 3e 3c 20 60 bf 7e c7 ec 3e 7b 74 2f 3f
       0.431471 -0.87549186 0.4624595 0.6853711
000040 e0 aa 3a bd a4 aa da be f9 ef 6e 3f f9 c0 df 3e
       -0.045573115 -0.42708313 0.9333492 0.43701914
000050 f4 a1 7f bf d4 0d 29 bf 37 ab 63 3f 3b e2 ec 3d
       -0.99856496 -0.66036725 0.8893313 0.115665875
000060 23 e7 a5 3e 70 ef 93 be 54 ce b0 be 5a 9c 59 3f
       0.32402906 -0.28893614 -0.34532416 0.850042
000070 47 ce 19 3e f4 5f 9b be a0 c3 9f bd 3e da e5 3d
       0.15020095 -0.30346644 -0.078009844 0.11223267
000080 4c 83 d5 be 06 75 02 3f 8e 45 2c 3f f6 44 7b bf
       -0.41701734 0.50959814 0.6729363 -0.981521
000090 fa e0 31 3f 20 82 1f 3f ce e7 47 3f 70 ea 14 be
       0.6948391 0.6230793 0.7808808 -0.14542556
0000a0 0e f8 05 bf 38 3b b6 be d4 c4 c4 be e0 a1 0c bf
       -0.52331626 -0.35592055 -0.38431418 -0.549345
0000b0 c8 70 19 be 72 4b 01 3f fb 8a 21 3f fc 79 d2 3d
       -0.14984429 0.50505745 0.6310269 0.10277173
0000c0 4c 44 60 3f e0 e2 ef bd 38 15 16 be c0 c1 1e bf
       0.8760421 -0.11713195 -0.14656532 -0.6201439
0000d0 98 64 0b bf 60 6a ef be c2 07 ae 3e 40 26 70 be
       -0.5445037 -0.46760845 0.33990294 -0.23452091
0000e0 8c a1 2a 3f ec 16 cb be 56 d6 ee 3e c3 b1 d9 3e
       0.6665275 -0.39665926 0.466479 0.42518434
0000f0 94 39 d3 be 32 5e 79 bf 91 91 15 3f d8 0d c7 be
       -0.41254866 -0.97409356 0.5842524 -0.3887775

model.0.bias f4 [64]
000000 e9 5d 9d be e3 76 c9 be 36 d2 99 3d 58 23 77 bf
       -0.3073571 -0.39348516 0.07510798 -0.96538305
000010 63 f4 48 bf b4 4f ef be 83 a6 1e 3f 1e e0 2a bf
       -0.78497905 -0.46740496 0.61972827 -0.66748226
000020 c9 c3 77 bf ee f6 40 3f 18 8a 68 3e 8c 39 b3 be
       -0.9678312 0.75376785 0.22708929 -0.35004842
000030 7f f2 27 be 54 c6 5a bf 1f 8c d4 3e 11 52 5e be
       -0.16401099 -0.85458875 0.41513154 -0.21710993
000040 5a c8 23 3f 00 0a 51 bc 2c 5a 60 bf f8 11 0b 3f
       0.6397759 -0.012758732 -0.8763759 0.54324293
000050 a4 5e 95 be a8 4e 70 bf 58 32 03 3e 2f 4e 61 bf
       -0.29173768 -0.9387002 0.12812173 -0.88009924
000060 ec 56 fd bd 8c 00 0e 3f 50 79 be 3d 1c de 09 3f
       -0.12370095 0.55469584 0.09300482 0.53854537
000070 19 51 ca 3e cc fe 4d bf 32 cf 50 bf 40 b1 6b 3f
       0.39514998 -0.80466914 -0.81566155 0.9206734
000080 a6 87 2d 3f 7a 4b 13 3f 13 ea 1c bf 98 8f 55 3f
       0.6778511 0.57537043 -0.6129467 0.8342223
000090 30 1b 6a 3f d6 21 e7 be 12 2f 6f 3f d8 a9 d6 be
       0.91447735 -0.45143002 0.934312 -0.41926455
0000a0 40 a2 6b bd 80 78 0b 3c a8 55 9a be f2 dd 33 3f
       -0.05752778 0.008512616 -0.30143476 0.70260537
0000b0 d8 bc 47 be a4 19 51 3f 52 66 d9 3d 3a 1c 40 3f
       -0.19505632 0.8167975 0.10615219 0.7504307
0000c0 76 1f d0 3e 64 4f e4 be 62 4c 0f 3f 48 dc 27 3e
       0.40649003 -0.4459182 0.55975926 0.16392624
0000d0 36 5c 30 bf 26 99 15 3f 77 d1 b6 3d a0 b4 e6 3e
       -0.688907 0.5843681 0.08926671 0.4505968
0000e0 99 02 b1 3e da 40 3f bf 98 a9 29 bf 1b 52 d9 3e
       0.34572294 -0.7470833 -0.66274405 0.42445454
0000f0 d8 c7 9f be e2 17 33 3f a9 d1 de 3e f8 7a 97 3e
       -0.31207156 0.6995832 0.43519333 0.29586005

model.2.weight f4 [32, 64]
000000 1a 4d d7 bd c0 7b 1e 3b 34 b7 31 bd f0 c2 4d bd
       -0.10512753 0.0024182647 -0.043387607 -0.050234735
000010 1e 2a 92 bd 7c d6 03 bd c0 61 c0 bb e8 a9 b3 3d
       -0.071369395 -0.03218697 -0.0058710277 0.087726414
000020 f0 a5 91 bd f2 a6 ce 3d 40 29 8d 3c 48 e6 29 bd
       -0.07111728 0.10090436 0.017231584 -0.04147938
000030 6a 9d 87 bd c0 c1 63 3d 72 4e 95 3d b4 d5 8d 3d
       -0.06621821 0.055604696 0.07290353 0.06925526
000040 48 45 bb 3d 20 19 24 bc 00 14 ab bc 74 77 27 bd
       0.09144074 -0.010015756 -0.02088356 -0.040885404
000050 54 93 79 3d 4a 5e 90 bd 90 bd 90 3c 84 58 d6 3d
       0.06093152 -0.07049234 0.017668515 0.10466102
000060 88 1b 9d 3c 28 d4 62 bd 12 43 d6 bd dc 0a 66 3d
       0.019178167 -0.05537811 -0.104620114 0.0561627
000070 ac 1e b5 bd e8 35 0a 3d 36 2a bd bd 00 74 74 3a
       -0.08843741 0.033742815 -0.09236567 0.00093251467
000080 5e 5f e6 3d 36 50 fd bd a0 3c 14 3c c8 d0 b3 3d
       0.112486586 -0.12368815 0.009047657 0.08780056
000090 7e 15 b4 3d 18 41 eb 3c c0 77 ff bc aa de 96 bd
       0.08793162 0.028717563 -0.031185031 -0.073666885
0000a0 6c 34 dc bd c0 8f 98 bc a0 7d e4 bb a0 70 e9 3c
       -0.10752186 -0.018623233 -0.0069729835 0.028496087
0000b0 78 6d a2 3c d0 36 66 3d e0 5e bd 3b 60 08 23 3c
       0.01982759 0.056204617 0.0057791322 0.009950727
0000c0 34 03 7f 3d ec a1 74 bd 22 4d d8 3d ea 9b cd 3d
       0.062258914 -0.059724733 0.10561587 0.10039504
0000d0 10 fe 47 3d 5e 85 f0 3d 86 b0 db bd b8 1b 4a bd
       0.048826277 0.11744188 -0.107270285 -0.04934284
0000e0 70 50 71 bc dc ca 9e bd 78 2c ba 3c f0 ab a7 bc
       -0.01472865 -0.07753536 0.022726282 -0.020467728
0000f0 a0 a9 35 3c 38 0f 9b bc cc 01 4d bd f4 06 e2 bd
       0.011087805 -0.018928155 -0.05005054 -0.110364825
000100 4c df 69 bd 74 d9 f8 3d 08 c1 91 3c d8 93 ec bd
       -0.057097718 0.12150851 0.01779224 -0.115516365
000110 8a 15 93 bd ca 52 8e bd bc 7e 98 bd 9c b9 0b bd
       -0.071818426 -0.069493845 -0.07446048 -0.034112558
000120 9e cf f9 3d 40 ed 45 3d 7e 2e de 3d 02 96 a8 3d
       0.12197803 0.048321962 0.108487114 0.08231737
000130 de 37 a1 bd 10 a1 4a 3c e6 16 98 bd c8 7b 49 3d
       -0.07871984 0.012367502 -0.074262425 0.049190313
000140 3e 9b e4 bd e0 3d 05 bc 76 b9 a5 3d f4 87 59 bd
       -0.111624226 -0.008132428 0.080920145 -0.05310817
000150 e8 f0 da bc ec 08 40 bd b0 8a d5 bc da 88 9a 3d
       -0.026726201 -0.04688351 -0.026067108 0.075456336
000160 00 aa 37 bc cc 15 94 bd 84 26 4a bd 9e 5e df bd
       -0.011209965 -0.0723072 -0.049353138 -0.10906719
000170 c0 7e c4 bc 48 81 d2 bd a0 c2 c9 bd 40 ae a0 3d
       -0.02398622 -0.10278565 -0.09851575 0.078457355
000180 54 0d 40 bd 58 a4 54 bd 2a 4b dc 3d 00 cd 48 bb
       -0.04688771 -0.051914543 0.10756524 -0.0030639768
000190 f4 e3 eb bd 00 01 8c bb c4 d9 14 bd 20 5c aa bc
       -0.11518088 -0.00427258 -0.03634049 -0.020795882
0001a0 c0 c3 5f 3d 0c 78 f4 bd 3c 5f 5d bd fc 19 5e 3d
       0.05463004 -0.119369596 -0.0540459 0.054224
0001b0 36 6d cd bd 76 ca df bd fa 94 94 3d 5c 92 2c 3d
       -0.10030596 -0.10927288 0.072549775 0.042131767
0001c0 aa ca d3 bd 90 a6 92 bd c0 91 b8 bc 9c b0 7a 3d
       -0.103413895 -0.071606755 -0.022530437 0.061203584
0001d0 50 d1 94 bd 58 18 a5 bd 98 6c 72 bd ca 9c dd bd
       -0.07266486 -0.08061284 -0.059185594 -0.10820921
0001e0 10 67 c2 3c c0 39 5e 3c e4 89 3e 3d 40 a4 7e 3b
       0.023730785 0.013563573 0.04651822 0.0038855225
0001f0 5e b4 91 bd a0 b2 1e 3d c8 60 e0 bd 9c 24 40 bd
       -0.071144804 0.03874457 -0.109559596 -0.046909913
000200 59 c5 60 3c 01 73 81 3d fe 68 c6 bd 40 4c be bd
       0.013718926 0.063207634 -0.096879944 -0.09291887
000210 9d fd 9c b8 f0 b2 3b bc 26 ee ec 3d b0 d8 0e 3c
       -7.485899e-05 -0.011456236 0.11568861 0.0087186545
000220 d8 53 c5 3d b0 1f 0d bc f0 0a 08 3d 50 2d 7b bd
       0.096351326 -0.008613512 0.033213556 -0.06132251
000230 d1 1c ba 3c 00 d8 b9 bb 6c 3d 3a bd 24 12 98 3b
       0.022718819 -0.005671501 -0.045468733 0.0046408344
000240 90 01 7b bc 54 c5 0d bd 84 fe d0 3c e0 0c 89 3d
       -0.015320197 -0.034612015 0.025511988 0.06691909
000250 a0 96 65 3c a0 4a 5c bd e4 71 9f 3d a4 0d 7f bd
       0.014012963 -0.053782105 0.07785395 -0.062268868
000260 4b 5a 00 bd b8 49 d7 bc cc 95 1d bd 37 93 51 bc
       -0.03133611 -0.026280269 -0.038472936 -0.012791446
000270 55 b2 9e 3d 20 8e 71 3d e0 72 1b 3d 91 bf 31 bc
       0.07748858 0.05897343 0.03795135 -0.010848896
000280 30 12 6b 3d ea 01 01 bd 64 c1 5b 3d 70 4d e9 bd
       0.05739039 -0.031495966 0.05365123 -0.11391723
000290 cd 46 d6 bd 8a 3b 10 bd bc 64 0f 3d 98 0b cf 3d
       -0.10462723 -0.03521303 0.035008177 0.10109633
0002a0 00 53 c9 ba 28 82 c7 bd 14 57 30 3d 40 41 49 3b
       -0.0015359819 -0.09741622 0.043051794 0.0030709058
0002b0 a0 32 f4 bb 0a 18 98 3d 86 d2 04 3e 2f cd 62 3c
       -0.007452324 0.0742646 0.12970933 0.013842865
0002c0 c0 02 75 bd ae 5e b6 3d d0 79 9f bc 70 1a bd 3c
       -0.059817076 0.089047775 -0.019467264 0.023083895
0002d0 90 70 24 3d ec 22 2a bd d9 55 86 bd 78 99 d1 3c
       0.04014641 -0.04153721 -0.06559343 0.025585875
0002e0 c0 00 06 3e a0 a2 30 3c 3d d2 d1 bd a1 1a ee 3d
       0.13086224 0.01078096 -0.10245178 0.11626173
0002f0 20 38 c9 bb 80 cc be bc b9 58 7e 3d 80 60 1d bd
       -0.006140724 -0.023290873 0.06209633 -0.038422108
000300 31 53 07 3e 6b 14 b3 bd f6 62 a0 bd b8 5c de 3d
       0.13215329 -0.08744129 -0.07831375 0.108575284
000310 f6 c2 ea bd 00 79 6d 3b e9 76 b4 bd 74 22 9d bd
       -0.11462967 0.0036235452 -0.08811743 -0.07672587
000320 06 db 34 3d a0 db 84 3c 4e b0 db 3d a8 f8 69 bd
       0.04415419 0.016218007 0.10726987 -0.057121903
000330 83 b9 f4 3d f0 68 75 3d f2 4c a1 3d c9 56 55 3c
       0.11949446 0.05991453 0.07876004 0.0130211795
000340 48 f5 e1 3c b6 f2 f7 bd fd 2f e4 3d 94 37 25 3d
       0.02758278 -0.1210684 0.111419655 0.040336207
000350 60 04 8a 3d ce 89 e1 bd 54 9d 18 3d 5b 33 35 3d
       0.06739116 -0.11012612 0.037259415 0.04423843
000360 1d 21 77 bd 98 15 87 bc 00 89 15 bb dc 10 07 3e
       -0.060334314 -0.016489789 -0.0022817254 0.13190025
000370 09 c1 b8 bd 58 9d 98 3c 24 8c f7 3d 67 6a f0 bc
       -0.090211935 0.018629715 0.120872766 -0.029347612
000380 ae 48 da 3d a5 a3 c1 3d e5 f6 8e 3c 20 e9 da 3c
       0.10658394 0.09455041 0.017451713 0.02672249
000390 4b f5 08 3e 6d c2 20 bd 2c 66 43 bd d8 d2 3a bd
       0.13374822 -0.03924792 -0.04770486 -0.045611233
0003a0 58 df ac 3c d4 8a 28 3d 10 bb ed bd c0 98 a7 3c
       0.021102592 0.04114802 -0.11607945 0.020458579
0003b0 78 3c e3 bd c0 9a c1 3c f3 7c 3c 3c 2e 99 0f bd
       -0.11095518 0.02363336 0.0115044 -0.035058193
0003c0 11 dc c4 bb 50 23 14 bc 80 ad 3f bd a0 27 e9 3c
       -0.0060076793 -0.009041622 -0.046796322 0.028461277
0003d0 b6 36 f6 bd b8 34 c0 bc a6 d5 db 3d f4 ee de bd
       -0.12022154 -0.023462638 0.107341096 -0.108854204
0003e0 9e 07 76 3c a8 d6 71 3d 7b 3d 20 bd 17 b1 8d 3d
       0.0150164645 0.059042603 -0.039121132 0.06918543
0003f0 00 eb a5 bb 5c 3c 11 3d ef ad 3f 3d e8 4a d4 3c
       -0.0050634146 0.035457954 0.046796735 0.025914624

model.2.bias f4 [32]
000000 38 b6 dc 3c 40 a6 76 bd b2 53 16 bd 79 b6 08 3e
       0.026942357 -0.060217142 -0.03670091 0.13350858
000010 9a 58 9f 3d dc 01 b0 3d a9 b4 83 bd 27 f1 d8 3c
       0.07780571 0.08594105 -0.064309426 0.026482178
000020 fa 81 56 3d c8 d6 a8 3d b1 1c 47 bc 9e 50 02 3e
       0.05237005 0.08244091 -0.012152837 0.12726066
000030 c3 c3 88 bd d2 22 d5 3d bd 55 ba bd dd f4 4d bd
       -0.066779636 0.10407032 -0.090983845 -0.050282348
000040 1f 74 10 3c dc bd 91 3d 80 c4 d7 3a 4a f4 d5 3d
       0.008816748 0.07116291 0.001646176 0.10446985
000050 cc 73 0e bd 3c dc 26 3d 95 b3 2b 3d bc f7 61 3d
       -0.0347784 0.040737376 0.04191931 0.0551679
000060 ec 6f 95 bd 6f 63 ad 3d 5c 03 9b 3d 80 54 2d bc
       -0.07296738 0.08466231 0.07569 -0.010579228
000070 b2 f9 eb 3d 31 be 60 3d a7 f7 a8 3d 9b 8f bc bb
       0.11522235 0.05486888 0.08250361 -0.005754424

model.4.weight f4 [1, 32]
000000 38 26 2e bd 9c 12 15 3e 97 2f 1e be 3c c5 84 bd
       -0.042516917 0.1455788 -0.15447842 -0.06482932
000010 e8 15 3c be 0a 4f be 3c 66 6b 78 bd 8f b3 70 bd
       -0.18367732 0.023231048 -0.060649298 -0.05876499
000020 2b 82 e0 bd 1b d0 0d be a9 01 0f 3d b4 2d a8 bd
       -0.109623276 -0.13848917 0.034913693 -0.08211842
000030 c9 b4 71 3b 7b f9 c3 3d 6a f4 c5 bd 9a c2 0a bd
       0.0036881438 0.09569069 -0.09665759 -0.033876993
000040 79 70 f7 bd 33 85 0a 3e 14 46 c2 3d d3 73 15 be
       -0.12081999 0.13527374 0.094860226 -0.14594965
000050 25 9e 21 bc 1f 43 02 be dc b7 09 be 6d 29 18 3e
       -0.009864365 -0.12720917 -0.13449043 0.14859553
000060 10 2a 23 3e 2f a2 0a bb 49 f9 92 bd 01 86 2b be
       0.15934014 -0.0021153798 -0.071764536 -0.16750337
000070 f1 d1 17 be 0a bb 37 be c4 2d 92 3c 50 e8 dc bd
       -0.1482618 -0.17942443 0.017844088 -0.107864976
