Code/RL_child_exp_policy_model.pth (torch, 200003 bytes, 9 tensors)

model.0.weight f4 [256, 21]
00000000: 7ed3 e7bd 885b 223e b274 8abd 3192 2fbe
00000010: 2c6a 7a3d 8d05 dabd bcf0 55bd 8f4e 333e
00000020: d432 b43c 7ff0 2e3e b1e3 3dbe 34a1 e43c
00000030: 70bf c7bd 0f3b c3bd 49fb 853d 5fab d0bd
00000040: c504 0b3e ad5c 4c3e f2d1 a3bd 2e72 19be
00000050: 9039 c23d 4258 f53c 665a 8a3d c63e 92bb
00000060: 42da 9bbd df16 443e 4218 4f3e 37a3 313e
00000070: 8eed 82bd 725c fe38 15fd 15be 9450 093e
00000080: a1a2 963c dc1c 423e 8619 d0bd 8584 f33d
00000090: 7e7e 073b 2ee8 463c 2a2c 013d 7b34 ab3d
000000a0: c216 a1bd 4265 19be 7ef1 33be 221d 213e
000000b0: 22a1 46bb 02ea 1c3e 5465 64bd 9af8 2fbd
000000c0: f23f e03c 3a94 043e fb7c 383d ec41 42be
000000d0: cc8b b6bc f70d 23be 1ef3 163d 01fa 343d
000000e0: 8992 93bd 9ffb ddbd 0bfb 43be 730d f83d
000000f0: 69ef e33d 23db 7fbd d6fe 703d b80d dfbd
00000100: 5164 653d 77a9 0cbe f5a7 2bbe 91dc 203e
00000110: bcbb aabb 3ba8 703d 7edc 8d3d d701 873c
00000120: ac40 b8bd f4a0 8fbc 8301 ab3d 6adf fcbd
00000130: 3772 013d a5fe 903c f61a 353e a5da cc3d
00000140: 6534 3dbe 1bd3 05be 5905 933b 3d0b 7c3d
00000150: daad 5f3c 8990 c53d 9c6f 673d 1aea 243e
00000160: a65a 883d 6073 ad3d 8116 343e 6a10 13be
00000170: e15c b03d 6b90 1b3e a672 20bd 923e 26be
00000180: 3044 07be b888 c63d 1649 0bbc d638 7bbc
00000190: 813c 0ebd 623d a43d 694f 1c3e 064c 4c39
000001a0: 239e 233e fe5c d33d add8 12be 2dad f73d
000001b0: 3463 bfbd 32b0 a93d ba43 a63d e278 343c
000001c0: 3226 d73d f70f 2a3e 0c6c 283e 3003 6c3e
000001d0: d2f9 113e 74d5 88bd 818a a63d 0871 2d3d
000001e0: 2aa2 c23d 9c2a 6cbd e553 57bd de4a 92bd
000001f0: 70d6 1c3e 2534 febd 14fb f5bc 5f7a bbbc
00000200: b4b6 213e ea46 4d3e dc34 06be e7a2 8a3d
00000210: 152e ce3d 63ec 243e 0ee3 2e3e d9ff 16be
00000220: 0949 8bbd c1b5 bcbb 344b 85bd 31c6 29bd
00000230: 2311 96bc 0e26 1fbe b445 b93c 5edb 2fbe
00000240: 910e 383e f069 37bd f18f 013e 487e c83d
00000250: 1888 813d 759d 54be 29ff b7bc ba78 0fbe
00000260: 7edb c0bd fb7b 21be 8d1a 35be 12c7 1abd
00000270: deff 373e 073b e13d 7cf7 4f3e b1e9 213e
00000280: e3d0 193e 6b9f 8ebd 1a0d f23d 66c9 58be
00000290: e9b3 40be 8bbd 763d f8fc 1e3e b8fd 2abe
000002a0: a383 203d b3bf aa3d 4c7b 07bd c118 383d
000002b0: fed5 543e 4e86 e63d 430c b63d 8dfa bf3d
000002c0: 3050 9cbd ddf3 133d 5f27 ef3d b6c3 d23c
000002d0: 50fe 21be c845 06be 470f 0dbe 28e6 2a3e
000002e0: cac5 df3d ad88 5bbd 819b f93c f4f8 fabd
000002f0: 279e 9c3c 0e5c 583d de08 dd3d 748a 05bd
00000300: a1c7 133e 4eac 533e 3ea8 42bc 236c 9f3d
00000310: 82cb acbd 19e3 bb3d cf9b 81bd 7285 9d3d
00000320: 162b e73d 613c 2d3d 86da d0bd 6a65 be3d
00000330: 9e03 bf3c fc0a 1b3d 3466 03bd 7c86 37be
00000340: 85c4 073d 979c 89bd 6745 26be 94f3 39bc
00000350: 7bcf 363e 24ca c4bd 80d8 1fbe 2561 3dbd
00000360: 4980 eb3d ea4c 2fbe 2857 493e 333e c93d
00000370: 412a 1b3e fcd5 c33c 04e0 8d3d 23ec 353e
00000380: bec3 06be 0487 56bd a606 89bd 9c06 9f3d
00000390: f098 ce3d dce0 d43d cadd c9bd a09c 5a3e
000003a0: 2405 963d 3f6f 343e eb94 5dbd e117 f03b
000003b0: 7eb5 ccbb c1b8 513e 5e37 14bc a4d1 063e
000003c0: 9631 c0bc 0840 413e 9fa2 243e 2df7 9bbd
000003d0: 34fd 9cbc 3e95 613e b48d cb3d c295 80bd
000003e0: a333 513e 5921 7dbd 3beb 963b 782f db3c
000003f0: b5a0 b83c 579d 14be 8ec1 04be f901 963c
-0.11319636 0.15855229 -0.06760539 -0.17145611 0.06113641 -0.1064559 -0.052231535 0.17510436
0.021996893 0.1708393 -0.18543889 0.027908899 -0.09753311 -0.09532749 0.065420695 -0.101889364
0.13576038 0.19957228 -0.07999028 -0.14984962 0.094836354 0.029949311 0.067555234 -0.0044630496
-0.07609989 0.1914935 0.20224097 0.17347418 -0.06392966 0.00012128883 -0.14647324 0.13409644
0.018388094 0.18956321 -0.10161118 0.118905105 0.002067476 0.012140317 0.03153626 0.08359619
-0.07865669 -0.14980033 -0.1757259 0.1573377 -0.0030308445 0.15323642 -0.055760697 -0.042961694
0.027374242 0.12947169 0.045041066 -0.1897046 -0.022283457 -0.15923296 0.03685295 0.044183735
-0.07205684 -0.108390085 -0.19138734 0.1211194 0.11129648 -0.062464844 0.05883678 -0.108912885
0.056003872 -0.1373652 -0.1676329 0.1570914 -0.005210368 0.058754187 0.06926821 0.01648037
-0.0899671 -0.017532803 0.08349898 -0.123473 0.031603064 0.017699549 0.17686066 0.10002641
-0.18477018 -0.13068812 0.0044867215 0.061534155 0.013652289 0.096467085 0.056502923 0.16104928
0.06657915 0.08469272 0.1758671 -0.1436173 0.08611465 0.1519181 -0.039171837 -0.16234806
-0.13209605 0.09694046 -0.008501312 -0.015333375 -0.03472567 0.0801952 0.15264668 0.00019483277
0.15978293 0.10320471 -0.14340468 0.120935775 -0.09345093 0.0828556 0.081183866 0.011015149
0.10505332 0.16607653 0.16447467 0.23048091 0.14255455 -0.06681338 0.08131886 0.042344123
0.095035866 -0.057657823 -0.052570242 -0.07143186 0.15316176 -0.124122895 -0.03002695 -0.0228855
0.15792352 0.20046583 -0.13106102 0.067693524 0.10067383 0.161058 0.17078802 -0.14746036
-0.0680104 -0.0057589714 -0.065084845 -0.041448776 -0.018318718 -0.1554186 0.022616245 -0.17173526
0.17974307 -0.044778764 0.12652566 0.09789711 0.06324786 -0.2076319 -0.022460537 -0.14010897
-0.09416865 -0.15769951 -0.1768591 -0.037787504 0.179687 0.10997587 0.20309252 0.15811802
0.1502109 -0.06964 0.11818905 -0.21170577 -0.1881863 0.060239356 0.15526187 -0.16698349
0.03918804 0.08337345 -0.03307657 0.044945482 0.20784757 0.11256085 0.088890575 0.09373961
-0.07632482 0.036121238 0.11677431 0.025728088 -0.15819669 -0.13112557 -0.13775359 0.1668936
0.10926397 -0.05359714 0.030469658 -0.12254515 0.019118382 0.052822165 0.10792707 -0.032602742
0.14431621 0.20671198 -0.011880932 0.07784297 -0.084372535 0.09174175 -0.06328546 0.07691468
0.11287515 0.04229391 -0.1019793 0.09296687 0.023317154 0.037852272 -0.03207989 -0.17922395
0.0331464 -0.0671932 -0.16237412 -0.011349577 0.17852585 -0.09608868 -0.15609932 -0.046235222
0.11499078 -0.17119184 0.19662154 0.09826317 0.15152837 0.023905747 0.06927493 0.1776586
-0.13160607 -0.052374855 -0.06690721 0.077649325 0.10087764 0.10394451 -0.09856756 0.2134881
0.07325199 0.17620562 -0.054097097 0.0073270653 -0.0062472215 0.20480634 -0.009046404 0.13165909
-0.023461144 0.18872082 0.1607766 -0.076155044 -0.019163705 0.22029588 0.09939137 -0.06278564
0.20429854 -0.06179938 0.0046056784 0.026756033 0.022537569 -0.14513145 -0.1296446 0.018311488

model.0.bias f4 [256]
00000000: 85ff 283e 3079 333d 5b18 5f3e 2864 c2bb
00000010: 49e6 443d cf5a 08be e172 453e c60a 013e
00000020: de28 9dbc aa0d 503d b7e6 02be 053e 9cbd
00000030: 556b cc3d 7db7 d3bc fc14 81bd 402d 6f3e
00000040: 15c4 a1bd 4bc9 183d 8d2f 03be 329e 5ebd
00000050: ecb5 49be f3dd 6e3e 1d8d 38be ec4d 4ebe
00000060: 81b0 3bbe c5f4 3b3e 05f9 1e3e a4d0 163e
00000070: b7cd aabd b706 64bd 2f98 fd3c 8a21 a03a
00000080: 59f4 26be 6383 30bd d726 343e 9400 693d
00000090: 120b 40be 3f54 46be 4da9 083e ae0b 553e
000000a0: 74b7 183e 914d b1bd f39c 633e 2c6a ae3d
000000b0: af90 bfbd d84a 95bd a44c 053e f2a1 fc3c
000000c0: 5b92 4e3d d623 3f3e 5086 6bbd 7b16 dd3d
000000d0: 07c8 38be f338 6d3d 0778 093e 5ee7 233c
000000e0: b571 303e 1e19 34be daf6 623a 2050 49be
000000f0: 03ee 393e 0eb6 5abe e808 3fbe f991 4bbe
00000100: 38e7 43be bd01 0fbe b270 303d 472b e33d
00000110: ebae 343b 56c3 363d 2718 053d 0636 30be
00000120: 29e6 f6bc c1b4 0bbe 6805 80bd c8dd 89bb
00000130: 2093 6fbd b353 e33d d97a 543c 999f b33d
00000140: fd76 4d3e b0a2 563d 296c b13d 317a 4ebe
00000150: e451 acbc 2702 1e3e 0bfc 1fbd 2400 ba3c
00000160: 1c55 2d3d 8d9e 29be 05e9 32be 1c8c 4f3e
00000170: 1424 b4bd edd2 e13c b461 383e 1c6b 00be
00000180: a276 be3d 0e83 3a3e 34f3 a43d 1048 4bbe
00000190: 28cf 583c a2e5 4c3e bf2e d8bd 0bad 453e
000001a0: 8526 013c 8190 733c bbae 39be c042 25be
000001b0: f61a 4b3d 2266 c9bd 02a5 4fbb 6857 25be
000001c0: af24 10be a9fd 973c a917 2b3e ccdc 98bb
000001d0: a9ac a13d ffff 2cbe 5301 69bd b4dc 31be
000001e0: 74a9 b53c 62e2 f1bc 2b58 bb3d f666 453d
000001f0: a742 8bbd b550 fe3c 994e 92bc ea80 1ebe
00000200: ea8a 40bd aa17 803e b733 42be 49e9 1b3d
00000210: b639 4ebd 5709 40be c717 abbd 7e8b 43be
00000220: b1f0 95bd 6304 893d 291a 4e3e a799 0c3d
00000230: 37f6 38be 40fe 51bd 250a b33b 27ed 4bbd
00000240: c3a5 333e 706a 043d 06f3 263e ac31 613d
00000250: a4f8 3dbd e0b4 3cbe 0471 d83c 928d 413d
00000260: 37c4 ac3d 2a23 19bd 2b1b e23c 0d0b 343d
00000270: 6cc8 323e 78ae bb3c d2ac 173e 0542 083e
00000280: 18fa a63d 1933 3dbc 011c 33be 996a a5bd
00000290: afd3 d0bd f7d2 febd f3ee 1fbe d32e 3ebe
000002a0: 1854 bcbc bcc2 37be bca3 293d 3547 913d
000002b0: 52be dd3d e0e1 a83d 1cb4 bfbc 1abb 0abe
000002c0: b733 0ebe b42d ef3d e8e5 663d 8ad5 263e
000002d0: f77c 923b 8cd9 d53d c12e 14bd f406 a6bc
000002e0: 6100 ef3d 70c6 16be f2eb 153e 2043 36bd
000002f0: 29de 473d 959e 47be 14fa 8ebc 52e3 64be
00000300: db37 1e3e 614f 013d abc8 9f3d 703e 683e
00000310: a31d 55bc cd9f 1d3e efb6 393e 162a 92bc
00000320: 36bb bfbd 9a30 b93d 4276 2abe 919c 25bc
00000330: 9689 6d3d 3261 cfbc 2f33 d83d aea4 593d
00000340: 57ac 7f3d 7410 3ebd 2148 20bc 518d 903d
00000350: 8512 653e e1dd a4bd 7f7d 7ebc d70a ec3d
00000360: 65fe 01be ae23 553e 15d6 0fbe 1ef8 9bbc
00000370: 69c5 cf3d 4956 2ebe b0e6 583e 8a25 403e
00000380: 7130 0c3e e8b3 583e 6385 b33c 7c53 55bd
00000390: d770 fb3d 3d78 74bc afcc 323e bd1c 5ebe
000003a0: 5f71 2cbe e83e 19be 1f3d b4bb 82d0 7dbd
000003b0: c628 1e3e 0158 603c cee0 f4bd 6f2a dcbd
000003c0: 6691 20be 2228 30be eac8 cdbd 8b6b 01ba
000003d0: 955e 0bba 2543 5dbd 2260 fa3d 0a15 b2bd
000003e0: fa28 723d 4225 633d 2787 063e bb23 2839
000003f0: bb89 42be 9a54 063e 76a8 b4bb b6f2 213e
0.16503723 0.043816745 0.21786635 -0.0059323497 0.04807118 -0.1331589 0.19282104 0.12601766
-0.019184526 0.05079428 -0.12783323 -0.07629017 0.099814095 -0.02584433 -0.063028306 0.23357105
-0.07898728 0.037301343 -0.12811108 -0.054350086 -0.19698304 0.23326854 -0.1802258 -0.20146912
-0.1832905 0.18355091 0.15524681 0.14728028 -0.08340018 -0.055670466 0.030956356 0.0012217027
-0.16304149 -0.04309405 0.17592941 0.056885317 -0.18754223 -0.19368075 0.13345833 0.20805237
0.14913732 -0.08657373 0.2222784 0.085163444 -0.09353768 -0.07289666 0.13017517 0.03083894
0.050432544 0.18666014 -0.057501137 0.107953034 -0.18045054 0.05791564 0.13424693 0.010003893
0.17230876 -0.17587706 0.00086579996 -0.19659472 0.181572 -0.21358511 -0.18655741 -0.19879903
-0.19131172 -0.13965507 0.043076225 0.11092239 0.002757008 0.04461988 0.032493737 -0.17208108
-0.030139046 -0.13643171 -0.06251031 -0.0042073466 -0.05848992 0.11099949 0.012968742 0.08770675
0.20064922 0.052401245 0.08663208 -0.201638 -0.021035142 0.15430509 -0.039058726 0.022705145
0.042317495 -0.16564389 -0.17471702 0.20268291 -0.08795944 0.027566398 0.18006021 -0.12540859
0.09299971 0.18214056 0.080542 -0.19851708 0.013232984 0.20009473 -0.10555791 0.19304292
0.007882719 0.014865995 -0.1813306 -0.16138744 0.04958626 -0.098339334 -0.0031684046 -0.16146624
-0.14076494 0.018553572 0.16708244 -0.004664993 0.078942604 -0.1689453 -0.05688603 -0.17369348
0.022175528 -0.029526893 0.09147676 0.048193894 -0.06799822 0.031044343 -0.017859744 -0.15478864
-0.04700748 0.25018054 -0.1896504 0.038064275 -0.050348006 -0.18753563 -0.083541445 -0.19096181
-0.07321299 0.0669029 0.20127167 0.03432622 -0.18062674 -0.051267862 0.005463856 -0.049786713
0.17543702 0.03232807 0.16303644 0.05497901 -0.0463797 -0.18428373 0.026421078 0.047254153
0.084358625 -0.03738705 0.027600845 0.04395585 0.17459267 0.022910342 0.1481202 0.13306434
0.0815317 -0.011547827 -0.17491151 -0.080769725 -0.101966254 -0.12442582 -0.15618496 -0.1857255
-0.022989318 -0.17945379 0.041415915 0.0709366 0.10827316 0.08246207 -0.023401313 -0.13547936
-0.13886915 0.11678639 0.0563716 0.16292396 0.0044704634 0.104418844 -0.0361774 -0.020266987
0.11669994 -0.14724135 0.14640787 -0.04449761 0.048795853 -0.19494088 -0.01745323 -0.22352341
0.15450995 0.031569842 0.07801946 0.22680068 -0.013007554 0.1539299 0.1813619 -0.017842334
-0.093618795 0.09042473 -0.16646674 -0.010108129 0.05799254 -0.025314901 0.105566375 0.053135566
0.062420215 -0.04640241 -0.009782822 0.07058204 0.22370346 -0.080501325 -0.01553285 0.11525505
-0.126947 0.20814392 -0.1404651 -0.01903921 0.10145075 -0.17025103 0.2118175 0.1876432
0.13690354 0.21162379 0.02191419 -0.05208157 0.12277382 -0.014921245 0.17460893 -0.2169065
-0.16840123 -0.14965403 -0.0055004503 -0.061966427 0.15445241 0.013692857 -0.119569406 -0.10750281
-0.15680465 -0.1720281 -0.10048087 -0.00049369846 -0.0005316523 -0.054019112 0.12225367 -0.08695419
0.05912111 0.055455454 0.13137494 0.00016035039 -0.18997853 0.1311821 -0.005513246 0.15815243

model.2.weight f4 [128, 256]
00000000: 0cd6 2f3d 40c9 61bb 905c f8bb 60b8 05bd
00000010: f4b9 c43c 7457 b93c 409b 1fbb 00f0 d0b8
00000020: 3ce4 bc3c 3043 75bc 10e3 783d e883 f8bc
00000030: 2c42 a83c 1424 6b3d 5099 b3bb 0852 4fbc
00000040: 7ce1 353d 80ac 5f3b 4427 fb3c a09b 74bc
00000050: 10b6 12bc f8fc 103c 3efc 043d 847e bdbc
00000060: 2e59 3bbd d01f 66bd f41a ae3c 9891 023d
00000070: 540e 4b3d 4c6e 63bd 48b6 13bd faa6 2f3d
00000080: 3cb7 7e3d 8811 053d 5076 37bd ee70 0d3d
00000090: b87c d5bc dab8 69bd 3611 10bd 58df 333d
000000a0: c804 833c 382a d53c c6a9 06bd cc56 a13c
000000b0: 0447 593d c4e5 f3bc 0014 3239 189b bdbc
000000c0: 10f3 873c 0091 d7ba 780c 4abd 0c3c ea3c
000000d0: 2cdf 07bd 30d9 883c b8d4 8b3c c0ab 213b
000000e0: 9c13 0ebd 4e0d 043d d03d 13bc 184b 4e3c
000000f0: 9c51 8dbc c07f 13bd 7898 b6bc 185d 4f3d
00000100: 78ce e2bc 54bd 6fbd 4465 1bbd 94a8 283d
00000110: bef6 283d c250 1abd 60e9 a33b 5a74 69bd
00000120: 8004 103b 6cdf 30bd c02e 21bb d82d 1a3d
00000130: b010 ccbb f8ab 9a3c 78d1 5dbc 44b0 edbc
00000140: 8c98 573d d258 603d cc11 823c 84f4 f73c
00000150: 06b9 6f3d e034 fa3c 08f4 4e3c 004f c4ba
00000160: b841 d5bc 082a 683c dcd3 44bd 505d 183d
00000170: f8a2 1f3c b4d0 2fbd ec05 d2bc 62a6 4dbd
00000180: f098 cebc d0fa b73b 5a46 423d 486c c23c
00000190: 48e5 26bd 5cb9 fd3c c281 6c3d f851 cabc
000001a0: 00a6 93ba f8e7 543d daaf 793d ece4 3c3d
000001b0: 3e80 66bd e023 d23b fec6 3e3d b442 2d3d
000001c0: 801a 85bc 0c85 ca3c 00df 533a b09e 0d3d
000001d0: 426d 633d 28bf 93bc d622 523d c6e3 1fbd
000001e0: e0c7 55bb 80a4 793c 902c e03c 4c11 d0bc
000001f0: 8001 d23a f0d8 013c 9850 50bd d094 4b3d
00000200: 687c f9bc 2c23 80bc 5098 52bc 246c 5d3d
00000210: e40f 09bd 50d0 2dbc e289 5dbd 503a e93c
00000220: a83a 9fbc 608c 11bb bc8b dabc 5a7f 5b3d
00000230: 18b6 debc 2041 f83c ca26 273d 3066 79bd
00000240: be68 523d a8f0 f13c 7e47 673d a667 0ebd
00000250: b4a3 063d 90ad bc3c 46ae 71bd 887b 8d3c
00000260: a6d1 54bd 482e 62bc b0b4 32bc 2cd7 373d
00000270: 1e35 10bd 1ccb e6bc 2033 4c3c f4b5 653d
00000280: e20a 443d 3899 753d 78d3 80bc b006 a53c
00000290: 3c60 ecbc 1089 5d3d 0084 8cba 8c77 0f3d
000002a0: 10a9 8d3c f886 5bbd d877 7b3d e2e9 7b3d
000002b0: e029 ecbc 6c6e b73c d016 283d a26a 063d
000002c0: b852 cdbc 5070 733c 74fc 22bd e89b 64bc
000002d0: b0d6 b43b 5e7a 103d 8047 5e3d 48dd 7abd
000002e0: 2031 a73c 92a8 4cbd f29f 1bbd 9828 8a3c
000002f0: 68af 133c f0d1 1abc 84a5 aabc 3269 1fbd
00000300: ec30 4b3d 8803 e73c 6ead 0c3d 1203 7dbd
00000310: 1841 4fbd c489 bcbc 8c2c cabc 4827 4a3d
00000320: ec6b 42bd 0084 b639 b491 6fbd 80bd d93a
00000330: 7cde e4bc 0082 57b9 381f edbc ccd6 14bd
00000340: e05d 6e3b c0b6 d43b 907f 263d ba7a 4f3d
00000350: 2c51 78bd c032 b2ba 8435 c53c 3a36 52bd
00000360: 1cde b9bc 2c9b 50bd 647d 423d dc0f 69bd
00000370: 6a77 55bd a058 323d b82a 5f3c 6024 7d3c
00000380: 30a4 713c eae0 003d b4b6 a4bc ead1 31bd
00000390: 10da ef3c ec74 7abd a46f 153d 805a 693b
000003a0: c070 ce3a b868 0ebc fc4c 7bbd 3a54 3abd
000003b0: 808b 01bd f8b8 b93c 8c64 efbc 4061 08bd
000003c0: 70ec 523d 6eba 063d 7c81 4a3d 003f c43b
000003d0: a8b1 1abc 0857 f33c da19 67bd 82e6 08bd
000003e0: be99 2dbd 5038 71bc 4ea4 3c3d 0011 1bba
000003f0: f8e0 943c c4e0 b93c a81b 143c caef 0fbd
0.04292874 -0.003445223 -0.0075793937 -0.032646537 0.02401445 0.022624709 -0.002435401 -9.9629164e-05
0.02305805 -0.014969632 0.06076342 -0.030336335 0.020539366 0.057407454 -0.0054809228 -0.012653835
0.04440449 0.0034129918 0.030658372 -0.014929682 -0.00895454 0.008849375 0.03246712 -0.023131616
-0.045739345 -0.056182683 0.021253087 0.03187713 0.04957421 -0.05552511 -0.03606251 0.04288385
0.062186465 0.032487422 -0.044790566 0.034531526 -0.026060447 -0.057061054 -0.035172664 0.04391417
0.01599349 0.026021108 -0.032876752 0.019694708 0.05304624 -0.029772647 0.00016982853 -0.023145244
0.016595393 -0.0016446412 -0.049328297 0.028593086 -0.033171818 0.016705126 0.017069206 0.0024669021
-0.03468667 0.03223925 -0.008986905 0.012591146 -0.017250828 -0.036010504 -0.0222895 0.05062589
-0.027686343 -0.058530167 -0.03793837 0.041176394 0.041250937 -0.037674673 0.0050021857 -0.056995727
0.0021975338 -0.04318182 -0.0024594516 0.037641376 -0.0062275752 0.01888083 -0.013538711 -0.029014714
0.052635714 0.054772206 0.015877627 0.030267961 0.05852606 0.03054279 0.012631424 -0.0014977157
-0.026032314 0.014170177 -0.048053607 0.037198365 0.009743445 -0.042923644 -0.02563759 -0.050207503
-0.02521941 0.005614616 0.047430374 0.023733273 -0.040746003 0.030972175 0.057740934 -0.024697289
-0.0011264682 0.051979035 0.06095872 0.046116754 -0.056274645 0.006412968 0.046576492 0.04229994
-0.016247988 0.024721645 0.0008082241 0.034575164 0.05552412 -0.018035486 0.051302753 -0.03903558
-0.0032620355 0.015236974 0.027364999 -0.025398873 0.0016022176 0.007925257 -0.05085811 0.049702466
-0.03045483 -0.015641771 -0.012853697 0.05405821 -0.03346242 -0.010608748 -0.054086573 0.028470188
-0.01943715 -0.0022208914 -0.026677959 0.05358825 -0.027186438 0.030304492 0.040808477 -0.06088847
0.05136942 0.0295337 0.056464665 -0.034766816 0.032870963 0.02303198 -0.05900409 0.017270818
-0.05195775 -0.01380498 -0.010907337 0.04488294 -0.035206906 -0.028173022 0.012463361 0.056081727
0.04786194 0.059960574 -0.015725836 0.02014479 -0.028854482 0.05408579 -0.0010720491 0.03502612
0.01729253 -0.053595513 0.06139359 0.061502345 -0.028828561 0.02239152 0.04103738 0.032816537
-0.025063857 0.01485832 -0.03979154 -0.013953187 0.005518757 0.03527295 0.054267406 -0.061246186
0.020409167 -0.04996545 -0.037994333 0.01686506 0.009013988 -0.009449467 -0.020830877 -0.03891868
0.049607202 0.028199926 0.034345083 -0.061770506 -0.050599188 -0.02301491 -0.024679445 0.049353868
-0.047466204 0.00034812093 -0.058488563 0.0016612262 -0.02793812 -0.00020552427 -0.02894555 -0.03633766
0.0036371872 0.006491512 0.040648997 0.05065415 -0.060624287 -0.0013595447 0.02407337 -0.051321246
-0.022688918 -0.050929233 0.047482863 -0.05689989 -0.052115835 0.04354155 0.013621025 0.015450567
0.014748618 0.031464495 -0.02010665 -0.04341308 0.029278785 -0.06114666 0.036483422 0.003560692
0.0015750155 -0.008691959 -0.061352715 -0.04549048 -0.03162718 0.022671208 -0.02922275 -0.03329587
0.051495016 0.032892637 0.049439892 0.0059889555 -0.009441771 0.029704586 -0.05642114 -0.033422954
-0.042382948 -0.014722899 0.04605513 -0.0005915314 0.01817368 0.022690184 0.009039797 -0.03514079

model.2.bias f4 [128]
00000000: 80e3 20bc 4c0e 5c3c d0f4 ddbb 6856 df3c
00000010: 5975 e93c a22b 19bc 0061 44bc d778 173d
00000020: f192 2c3d c6ff cdbb bb0e 393d 4b44 4b3d
00000030: 8830 edbc 1a59 843d 261d 7cbd 60b6 2e3d
00000040: 2cf1 5cbc d8ef 2a3d 28c2 0b3c e5ca 56bd
00000050: aadc 423d 7676 473d 09b7 f6bb a259 33bc
00000060: 6840 5ebc 0a44 58bc dea9 73bd 21ed 133d
00000070: 96ea 293d 0efd 3e3d 1843 143d 2cdb e43c
00000080: 0018 16b9 2b95 8cbd 558b 593d ae83 1239
00000090: d829 e03c 694e 43bd 2a29 5ebd 6d3a 79bd
000000a0: 690c d43b f995 e83b d088 26bc 6e29 433c
000000b0: 1ebf 5fbd 455c e4bc 4b8e b3bb 888a 963d
000000c0: 4afe 0a3d 8ea6 17bd 7665 7b3d fd7b 103d
000000d0: 6b13 49bd 57d2 4e3d 1efa 1f3c 24c8 273c
000000e0: e4a8 fabc 40ff 0bbd 95a7 76bc 5067 633d
000000f0: 948f 953d 9f40 ba3c 51ab 95bc 86dd 81bb
00000100: a2e0 4b3d 605c 553d 009b ac3b 2c62 0f3d
00000110: d921 7c3c 60bb 74bc bd09 2e3d c157 4f3d
00000120: bdd1 733d cb18 3e3d e95c 8d3d 8d48 db3c
00000130: 8055 183d a048 483c 63df 3bbc 7a43 36bd
00000140: 481c aebc 20be 123c 3e09 edbc cb41 ed3c
00000150: 4df8 d4ba 18be c5ba 7753 65bc a7fb 083d
00000160: 8a55 d0bc 7275 f63c 9caf 75bd 7899 653d
00000170: 1c75 acbc c23c dc3c 88b3 30bc a7d1 18bd
00000180: 2cdd 07bd 08e1 b5bc 66d7 60bd b261 543d
00000190: 7cb2 183d 2325 913d 6dd9 523d d4b3 e73c
000001a0: 51af 9d3c 2d44 293c e56a 0f3d dc5d 17bd
000001b0: e8c3 ab3c a7ef 143c 68ac 1c3d 57a2 fa3c
000001c0: 1f02 62bb 6cd2 8ebc 64db 64bd c353 553c
000001d0: 28e2 3fbd d8e5 15bd 4869 cebc 1736 0abd
000001e0: 8a33 2a3d 7d98 303d b77e 433d 5a76 4dbd
000001f0: 245c 663c bd08 923d b641 473d d62a 62bd
-0.009819865 0.013431143 -0.0067735687 0.027262881 0.028498339 -0.009348782 -0.011986017 0.036980476
0.04213232 -0.006286594 0.045180064 0.049625676 -0.028953806 0.06462307 -0.061551236 0.042654395
-0.013485234 0.04173264 0.008530177 -0.05243959 0.047573723 0.048696958 -0.0075291437 -0.010946663
-0.01356516 -0.0131998155 -0.05948817 0.036114816 0.041483484 0.04662805 0.036196798 0.02793654
-0.00014314055 -0.06864389 0.053111393 0.000139727 0.027363703 -0.0476822 -0.054238476 -0.060846735
0.006471206 0.0070979563 -0.010164455 0.011911733 -0.054625623 -0.027876029 -0.005479609 0.073506415
0.033933915 -0.037024073 0.061376058 0.035274494 -0.049090784 0.050493564 0.009764222 0.010240588
-0.030598111 -0.034178972 -0.015054603 0.05551845 0.07302776 0.022735892 -0.018270167 -0.003963175
0.049774773 0.05209005 0.005267501 0.035005733 0.015388929 -0.014937252 0.042489756 0.050620798
0.059526194 0.046410363 0.06902487 0.026767993 0.037190914 0.012224346 -0.011466834 -0.044497944
-0.02125372 0.008956462 -0.028935071 0.028962037 -0.0016248316 -0.001508656 -0.01399695 0.03344312
-0.025431413 0.0300853 -0.059981927 0.056054562 -0.021051936 0.02688444 -0.010784991 -0.037309315
-0.03316991 -0.02220203 -0.05489292 0.051850982 0.03727959 0.070871614 0.051476885 0.02828399
0.019248636 0.010331196 0.035014052 -0.036954746 0.020967439 0.009090341 0.038250357 0.030594988
-0.0034486128 -0.017434321 -0.05587329 0.013020459 -0.04684654 -0.03659615 -0.025196686 -0.03374299
0.041553058 0.043114174 0.047728267 -0.050161697 0.014060054 0.07130573 0.04864665 -0.055216633

model.4.weight f4 [64, 128]
00000000: ac1c 15bd 0fd7 24bd 6a81 d8bc 2340 31bd
00000010: d3b7 c6bb af38 0c3d 3881 8c3d 3d29 903d
00000020: 555a 84bd ec01 9c3b 120d 4ebd 6604 3fbd
00000030: c4ec d3bc 9e18 f83c bca8 19bd fc6c 28bd
00000040: c69a b8bb 1f90 7c3d e83c cdbc eb24 88bc
00000050: d27f a83d 431c b4bd 2e10 433d 126e 733c
00000060: b032 09bd 3781 003d 75f9 ebbc 30f2 7c3c
00000070: 82f4 b4bb f602 07bd 3698 2bbd 4c61 36bd
00000080: 9e97 a23d 4e92 a43c 3e90 a0bd cd8e 9e3d
00000090: 5d4d 86bc 318a 0e3d 291d f13c 80bb a7bc
000000a0: 1ce5 493d 72d1 5dbb 2b91 99bc 8e76 c13b
000000b0: aae5 1a3c 5890 9cbd 395d 713d 5518 99bd
000000c0: 3c43 7ebd 6586 313d 6aee 85bd 8337 9e3d
000000d0: c58d 5ebd 483f b3bd 84c4 3c3d 4069 acbc
000000e0: 1258 c3bc 9905 423d bf1d 363d 7c5e aa3d
000000f0: 3fda 8bbd bf99 923d 2524 adbd 4fde a6bd
00000100: b971 89bd e299 483d abf3 433d 4ad5 fbbc
00000110: 5e9c 33bc 9f70 9d3d 4eb3 6a3c f947 6bbc
00000120: 7e66 5e3d cc4d 82bd c241 7dbd 56e4 81bc
00000130: d439 9c3c 8b0d 70bd 8494 5f3d ccea aebc
00000140: a8e6 e63c cb8a 17bd e0bf 3cbc 9c36 053d
00000150: 63d4 673d 6819 5ebd fa7a e63c 8ff5 a5bc
00000160: c89e fa3c b7e1 8dbd 68a7 8bbb d486 7e3b
00000170: a487 0b3d 6a97 4dbc 609d 09bd 7a49 b33d
00000180: af41 923d 8d56 12bd 10a2 e33c f14d 863c
00000190: 089b 893d 1415 823d 1365 3dbd d0a0 dd3c
000001a0: 289d 523c 0ae4 4fbb 8ab7 7c3c 36de 9cbd
000001b0: 1773 c8bc 5df2 abbd db79 113c 369e 42bb
000001c0: d772 743d 13cd 3d3d 25cd c7bc 0ae6 bcbc
000001d0: fd21 30bd cc38 85bc c22f 513c 60b9 8a3b
000001e0: 59b1 a73d bdea 72bd e0b5 0ebd 7fd5 9d3a
000001f0: d2c2 2c3d c416 73bd 14f0 a03d bde8 74bd
00000200: 9838 b4ba d5cd 483d c0d5 85bd 5f86 ad3d
00000210: 93c6 c33c 8f00 913d 56c0 9f3d 7cbc bd3c
00000220: 8e91 4e3d 20a7 cabc b14e 60bd 2923 9dbd
00000230: bf2d 863c 6746 843c 9926 6abd eed2 9c3d
00000240: 1f40 4d3c 9cd5 cfbc 5200 0b3d 34e6 a1bd
00000250: 472c 53bd b086 8abc 0007 573d 59f2 f2bc
00000260: cabd 803d 4bdd a2bd 56ce c0bd c91c 9abd
00000270: ce90 933d ee85 00bd b6c4 b3bd 421b 993c
00000280: e489 8b3d a6f9 b4bd e71f a83a a7eb 143d
00000290: d81e 1abd 4107 41bd 9601 a9bd 577b eebc
000002a0: 7521 61b9 4f89 923d f700 83bd 6c84 26bd
000002b0: 2a32 ac3c 053e 8cbd 351a 973d 7f31 6a3b
000002c0: 6863 58bd a420 413d 2452 b4bc d737 ddbb
000002d0: 7da4 4abd bf73 373d 8fd9 583c e513 76bd
000002e0: 539e 8fbc 18e0 733c 9cfd 26bd bbdc 173c
000002f0: 7344 85bc 13df 303d 9cb4 0ebd dfa8 093a
00000300: 395e f73b b79b c3bd cc80 473d 7c0d b03c
00000310: 7869 b43c 315f 6c3d e40b a3bc 7c06 913d
00000320: ff62 4d3b 9b0c 92bd 861e c2bd 7617 9ebd
00000330: 3c33 563d 09c5 cf3c 376f 3f3d 7f70 ca3c
00000340: a3f4 b13c 4ac7 25bd 5ff4 713d a658 233d
00000350: 62b8 afbd 728d 01bd 0892 683d 9172 463d
00000360: f730 00bd d3b6 f0bc 7637 8d3d 7ee9 043d
00000370: 2317 a33d 84d2 d33b 4a32 a43d 5d5e 823d
00000380: cb41 a1bd 5f1c 353d bf52 d13c 6a19 12bd
00000390: 865a 283b 7827 1c3d 37c6 0bbd e5a9 82bd
000003a0: 4b38 ed3c 7630 abbd b236 b0bd 07f4 ddbc
000003b0: 0eaa 253c 24f8 043d e7ff 953d 36fb debc
000003c0: 4acc 08bd f9fa 12bd c957 b73c 87c4 9c39
000003d0: 8379 3bbd 5366 08bd 2458 7dbd 86a9 5abd
000003e0: 135f 43bc e66e 263b 7654 c5bd 1d30 443d
000003f0: 974c e73c b557 08bc 5473 ab3d 5459 b73c
-0.036404297 -0.04024416 -0.026428897 -0.043274056 -0.006064394 0.034233745 0.06860584 0.070391156
-0.06462542 0.0047609713 -0.050305434 -0.046635054 -0.025869735 0.030285176 -0.037514433 -0.04111956
-0.005633685 0.061660882 -0.025053456 -0.016619166 0.08227505 -0.08794453 0.047622852 0.014857786
-0.033495605 0.03137323 -0.028805474 0.015438601 -0.0055223117 -0.03296181 -0.041893207 -0.044526383
0.07939075 0.020089295 -0.07840012 0.07742081 -0.016394312 0.03479976 0.02943285 -0.02047515
0.04929076 -0.0033846763 -0.01874598 0.0059040254 0.00945417 -0.07644719 0.058926795 -0.07475344
-0.06207584 0.04334106 -0.065396145 0.07725432 -0.05433442 -0.08752304 0.04608585 -0.02104628
-0.023845706 0.04736862 0.04446196 0.08318803 -0.068287365 0.07158231 -0.0845416 -0.08147871
-0.06711144 0.04897488 0.0478398 -0.030741353 -0.010962574 0.076874964 0.014324976 -0.014360421
0.054296963 -0.06362495 -0.06183029 -0.01585595 0.019070543 -0.058606666 0.054584995 -0.021352194
0.028186157 -0.036997598 -0.011520356 0.032522783 0.056599032 -0.054223448 0.028134812 -0.020258693
0.03059329 -0.06927817 -0.0042618997 0.0038837688 0.034064904 -0.012548307 -0.03359735 0.08754249
0.071414344 -0.035727073 0.027787238 0.016394587 0.06719023 0.063516766 -0.04623897 0.02705422
0.012854852 -0.0031721615 0.0154246185 -0.07659571 -0.024468942 -0.083958365 0.00887915 -0.0029696352
0.059679832 0.046338152 -0.024389813 -0.02305891 -0.043001164 -0.016262434 0.012767734 0.004233524
0.08188123 -0.059305895 -0.03484142 0.0012041776 0.042177983 -0.059347883 0.07858291 -0.05979227
-0.0013749776 0.04902442 -0.0653491 0.08472895 0.023898399 0.07080185 0.07800357 0.023161165
0.05043178 -0.024737895 -0.054762546 -0.07672722 0.016379235 0.016146852 -0.057165716 0.07657419
0.012527495 -0.025370412 0.033935852 -0.07905236 -0.051555898 -0.016909927 0.05249691 -0.029656576
0.062861994 -0.079523645 -0.094143555 -0.075250216 0.07205354 -0.031377725 -0.08777754 0.018689755
0.0681341 -0.08836679 0.001282689 0.036357548 -0.03762707 -0.04712606 -0.082522556 -0.029111547
-0.00021470136 0.07155096 -0.063966684 -0.04065363 0.021020014 -0.06847767 0.073780455 0.0035735068
-0.052829176 0.04715027 -0.022011824 -0.0067510414 -0.049473274 0.04478812 0.013235464 -0.060077567
-0.01753155 0.014884971 -0.040769204 0.009268935 -0.01626799 0.04318149 -0.03484021 0.0005251299
0.007549074 -0.095511846 0.048706815 0.021490805 0.022022948 0.05770797 -0.01990313 0.07081315
0.0031339524 -0.071313106 -0.09478478 -0.077193186 0.052294955 0.025362508 0.046736922 0.024711845
0.021723097 -0.04047326 0.05907094 0.039879464 -0.0858009 -0.031629033 0.05677989 0.048449103
-0.031296697 -0.029384052 0.06895344 0.032449238 0.07963397 0.0064643044 0.080174044 0.063656546
-0.07873877 0.04421651 0.025552152 -0.035668768 0.0025688722 0.038123578 -0.03412458 -0.06380061
0.028957507 -0.083588526 -0.08604182 -0.0270939 0.010111345 0.032463208 0.073242 -0.027219396
-0.03339795 -0.035883877 0.022380726 0.00029901063 -0.04577018 -0.03330071 -0.061851636 -0.053384326
-0.011924523 0.002539569 -0.0963525 0.047897447 0.028234763 -0.008321692 0.083716065 0.022381462

model.4.bias f4 [64]
00000000: 54c5 3dbc 9d5d ef3c 4126 ffbb 56d7 5bbd
00000010: 8680 313d 2484 53bd 05da 80bc 1209 5e3d
00000020: 5da0 0abc 3214 423c 2408 8a3d 6c88 98bd
00000030: 12e3 153b 3ed7 5d3c efd9 023d d9be 033e
00000040: ef2e 5e3c 490f a5b9 1482 843d bbac cc3b
00000050: 7fc8 43bd 8456 a53d d406 c03d 5101 ba3d
00000060: bc10 863d 4d1b 4a3d bf07 a6bc eeb7 a33d
00000070: 33cc 91bd 3b4b d13d cfd1 a23c 69f3 ab3d
00000080: 088f a5bd c4a8 b43d 6951 9bbc d75c 2fbd
00000090: 5b1a 903d 4bc8 4f3c 3e5c 72bd 6eb4 163d
000000a0: 81eb 72bd d09b 573d 6b12 16bd 8117 323d
000000b0: 8ae3 5c3d f0b8 5cba 302c 843d b017 a93a
000000c0: 7649 f33c b9af fa3a c521 9e3d 0d9e c23d
000000d0: 6af0 10bd 54d0 013d dfdf a3bd fc9b b9bc
000000e0: 1291 053d 822f 86bd a5fe a63d 7b1d a73d
000000f0: e45e 833d 1780 2bbc 269f 9abd ef19 9a3d
-0.011582691 0.029219443 -0.0077865426 -0.053672157 0.04333546 -0.05163969 -0.01572896 0.05420787
-0.008461085 0.011845635 0.06739834 -0.074478954 0.002287094 0.013540087 0.03194612 0.12865771
0.0135609945 -0.0003148264 0.06470123 0.006246177 -0.04779863 0.08073142 0.09376302 0.09082282
0.065461606 0.049342442 -0.020267366 0.07994066 -0.07119026 0.10219427 0.019875435 0.08396036
-0.08083922 0.08821252 -0.018959718 -0.04281315 0.07036277 0.012682031 -0.05917 0.036793165
-0.059306625 0.05263883 -0.03663866 0.043479446 0.053927936 -0.0008419892 0.064537406 0.0012900736
0.029698115 0.0019125856 0.07721285 0.09502802 -0.035385527 0.031692818 -0.080016844 -0.022657387
0.032609053 -0.0655203 0.08154038 0.0815992 0.06414583 -0.010467551 -0.075498864 0.07524478

model.6.weight f4 [32, 64]
00000000: faa1 8d3d e06b 713c 5a02 b53d 901b f0bc
00000010: 40fe 4dbd ecbd 31bd 102f 443d 201a 88bc
00000020: 04a6 d1bd 605c 553d ecb6 4a3d 70a5 e2bd
00000030: a0bb e93c c039 d5bd 8cdb 8fbd b4cf 9d3d
00000040: 30bd 343d 9828 5fbd d235 99bd 906b 4d3c
00000050: fa55 b5bd a44f 67bd a063 583c 3030 00bd
00000060: 00d2 403a 64df 76bd 0038 6e3a 9847 acbc
00000070: 30f4 3ebc 92a7 d73d a821 fdbd 8018 55bd
00000080: ea2d e6bd 9067 e73c 20d6 a0bc b8b1 ce3c
00000090: 20f8 9b3b b894 d83d 4c9b 47bd 04cf d6bd
000000a0: 6caf ec3d 54b9 aabd d449 bfbd 103f 11bd
000000b0: 5cea b63d 2c74 8cbd 3691 afbd 4c47 32bd
000000c0: b2e4 cfbd 488e ad3d c0e3 6ebb 2001 493d
000000d0: 1c2e dfbd b8f8 343d e46b 3d3d 4062 e8bc
000000e0: 7c24 b23d b2b7 dd3d 94ea fb3d e8ea db3d
000000f0: eae9 993d 9052 8ebd 5a31 8abd 4009 bebc
00000100: f8c5 01bd 95e1 ccbd 61b2 edbd ed72 bd3d
00000110: acec e8bd 25f0 1bbc 5831 53bd e3f7 d4bd
00000120: c694 f93d 00ac 643b 8039 d0bd d364 be3d
00000130: 9689 1e3d 20a3 c7bd eaa5 93bd 2871 ac3d
00000140: 5715 823d 8ece fb3d b0c2 863c e8f7 a03d
00000150: 8a29 f63d 245f 693d 8830 353d 5c65 e4bc
00000160: 6106 a2bc 0032 7d3d 9ee6 d7bd 9e81 e53c
00000170: 579c 75bd 7e79 fc3d 26ad e53d 839e e93d
00000180: fa06 d93d 0088 db3a 265a e3bd 9a09 a13b
00000190: 77c8 fcbd 6e91 c23d 0356 ed3d 58e3 c63d
000001a0: db1c 17bc 50df acbd 20fb 903d 0f04 75bd
000001b0: 0aa4 043d 1c19 313d c834 e0bc e1ba f53c
000001c0: 20da 20bd cada e33c f8f9 443d 4363 923c
000001d0: 7c56 88bd 7091 473d bbe6 2fbd 201e d73b
000001e0: f78f b73d 08b8 f33d 9cf6 c4bd 7ccb 2d3d
000001f0: e64e 9dbd 58d1 e13c ac06 863d 2c21 1d3d
00000200: 309f d4bc 8438 70bd 1fd9 bc3d 2807 a03d
00000210: 705c 2a3d ddc2 5b3d 6284 f23d 95dc 81bb
00000220: a086 6cbc 5cfa 273d 3820 74bd 82da f23d
00000230: a60b 133c ee89 cfbc fead 803d 8d38 1c3e
00000240: b24b e63d 4076 4dbb 0627 263d d249 cb3d
00000250: 330c b63d 501e 78bc ff65 ee3d cf2c 273d
00000260: 1af5 ea3d 9c1f d3bd 54dc e23d 56bd a13d
00000270: 0a40 123d d6a4 3fbd 423f 90bd c85a 0e3e
00000280: a0c6 73bc b027 813d cc06 b23d e7e7 1c3c
00000290: f4a8 dabc 98e8 4dbd 5c76 653d 867f e4bd
000002a0: 90a1 85bd eeed 283d 2065 b13b 793e d63d
000002b0: 180c b7bd 5482 adbd 400a 3cbd 2e5c c2bd
000002c0: ee12 a4bd 4803 f7bc a059 8f3d 80c4 e7bc
000002d0: a8f8 84bd c0f4 093b 08fe 9d3d b8dd 38bd
000002e0: 1c66 b13d 84ce 5d3d 209d a13c e446 55bd
000002f0: f093 b13d 8d25 40bc c01c a93c 78b3 623d
00000300: 6884 b13c dee3 893d ae79 253d 27c6 a4bd
00000310: 6a23 f73d 16d2 8d3c 0a4b 9b3d 7ac6 3e3d
00000320: a05d aabb 02ea 82bd 70ab f53d f002 b9bd
00000330: b783 65bd 7ec8 5a3d c49a f6bd 68bc 193d
00000340: a403 d6bd 9ed7 ea3d d2ba 493d ed55 82bd
00000350: 17b4 5bbc 0e0d d7bd 1395 e13d 2cd7 733d
00000360: f277 2c3d b16d 2b3c 9034 cf3d f1d6 bf3d
00000370: d876 ef3d 2380 81bc c7a4 b73d 1e9a 5c3d
00000380: 207b 813d f803 b93c f4c6 ca3d d605 c13d
00000390: 8bb7 9a3d 1fbf bebd afae 993d 01eb 6dbc
000003a0: d735 793d 2157 c5bd 8444 103d 25c6 6fbc
000003b0: 9c0f 993d d9b7 0d3d 97eb abbd 1e21 543d
000003c0: 2a0e ccbd cd69 a93d ec3c 443d 1486 0c3e
000003d0: 499b 22bc c6e0 c7bd 2002 093c dcfc eb3d
000003e0: ea15 e63d 48d2 a7bd ed37 f53d 12b7 923d
000003f0: 0639 cebd 9a99 15bd 2d24 363d c8a2 a33c
0.0691566 0.014735192 0.08838339 -0.029310018 -0.0502913 -0.043394014 0.047896445 -0.01661402
-0.10236743 0.05209005 0.049490854 -0.11066711 0.02853185 -0.104114056 -0.07024297 0.07705632
0.044125736 -0.054482073 -0.074809685 0.012537852 -0.08854289 -0.056472436 0.013207346 -0.031295955
0.0007355511 -0.060271636 0.0009087324 -0.021030232 -0.0116548985 0.105300084 -0.12359935 -0.05202532
-0.11239226 0.028247625 -0.019633353 0.025231227 0.0047598034 0.10575241 -0.048732087 -0.10488704
0.115568966 -0.0833613 -0.093402535 -0.03546053 0.08931419 -0.068580955 -0.08572619 -0.043525025
-0.10151042 0.084744036 -0.0036451668 0.04907334 -0.108974665 0.04418251 0.04624547 -0.028367162
0.08698365 0.10826053 0.123006016 0.10738164 0.07515319 -0.06949341 -0.06747694 -0.02319777
-0.03168294 -0.10003964 -0.11606289 0.09250436 -0.113732666 -0.009517704 -0.05156073 -0.10398843
0.121865794 0.003489256 -0.10167217 0.092965744 0.03870543 -0.097479105 -0.0720938 0.0842002
0.063517265 0.122952566 0.016450256 0.07859784 0.12019642 0.0569755 0.044235736 -0.027880363
-0.019778432 0.06181526 -0.105420336 0.028015908 -0.05996355 0.1232786 0.11214666 0.11407187
0.10597034 0.0016748905 -0.11101179 0.0049144747 -0.12342923 0.09500395 0.11588671 0.09711331
-0.009223188 -0.08441031 0.07079148 -0.059818324 0.032383002 0.043236837 -0.027368918 0.029996337
-0.03927052 0.027814288 0.04808995 0.017869597 -0.066571206 0.048722684 -0.04294465 0.0065648705
0.08963006 0.119003356 -0.096173495 0.042430386 -0.07681064 0.027565643 0.06544241 0.038361713
-0.025954813 -0.058647648 0.092211 0.07813865 0.04159206 0.053652633 0.11841656 -0.003963063
-0.014436394 0.041010246 -0.05960104 0.11858083 0.008974945 -0.025334325 0.062831864 0.15255947
0.112449065 -0.0031351 0.04056456 0.099261895 0.088890456 -0.015143946 0.11640548 0.040814217
0.11472531 -0.103087634 0.110771805 0.07897441 0.035705604 -0.04678806 -0.070433155 0.13901818
-0.014878899 0.06306398 0.08692703 0.009576774 -0.026691891 -0.050270647 0.05602108 -0.11157136
-0.06524956 0.041242532 0.0054136664 0.104611345 -0.089378536 -0.08472124 -0.045908213 -0.09490238
-0.08011423 -0.030152932 0.069995165 -0.02829194 -0.0649274 0.0021050423 0.07714468 -0.045133322
0.08662054 0.054152027 0.019728243 -0.05206956 0.08670795 -0.011727703 0.020643592 0.055346936
0.021669582 0.06732915 0.040399246 -0.08045607 0.120673016 0.01731209 0.07582672 0.046576
-0.0051991493 -0.0639229 0.1199559 -0.090337634 -0.056033816 0.05341386 -0.12041238 0.037533194
-0.10449913 0.11466907 0.04925043 -0.06364045 -0.013409636 -0.10500537 0.11014762 0.059531376
0.042106576 0.010463164 0.101174474 0.09367169 0.116925895 -0.01580817 0.08966976 0.053857915
0.06322312 0.0225849 0.099012285 0.09424941 0.07554539 -0.09313797 0.075040214 -0.014521361
0.06084236 -0.09635759 0.03522159 -0.014634644 0.074736804 0.03459916 -0.083945446 0.051789396
-0.09963639 0.08272133 0.047909662 0.13723022 -0.009924718 -0.09759669 0.008362323 0.115228385
0.112346485 -0.08194405 0.119735576 0.07163824 -0.1006947 -0.03652344 0.044468094 0.019975081

model.6.bias f4 [32]
00000000: d82a e5bc 1f27 623c 9adf 0c3d 0602 d43d
00000010: 003d 1fbc e8b0 113d 9a1d 4dbd a0ba 653b
00000020: b445 16bd e0a2 ef3d 2070 a83b 0aba cd3d
00000030: a5fb e63d 38cf cb3d 9b6c 403d d89a 3fbd
00000040: cf99 d13b b6ea 713d 5ec6 a1bd 0b42 b5bc
00000050: b030 083e a2c1 6e3c b213 023e 5a28 9dbd
00000060: e085 1dbd 5891 f83d adb4 3dbb 702e e03d
00000070: 0a70 e43d 067d f83d ce3d b33a bcec 8cbd
-0.027974531 0.0138032725 0.03439293 0.103519484 -0.009719133 0.0355691 -0.05007706 0.0035053864
-0.036687568 0.11700988 0.0051403195 0.1004525 0.11278466 0.09951633 0.046978574 -0.04677853
0.0063965092 0.05906173 -0.07899164 -0.022126218 0.13299823 0.014572533 0.12702826 -0.07673712
-0.03845775 0.12137097 -0.0028946802 0.10946357 0.11154182 0.12133221 0.0013675035 -0.06881091

model.8.weight f4 [1, 32]
00000000: 0000 0000 d639 31bc c5af fbbc df96 8abc
00000010: 0000 0000 0000 0000 42e8 86bc df03 89bc
00000020: 0000 0000 0000 0000 0000 0000 f9f2 82bc
00000030: 22e2 89bc 3acf f1bc 32eb 89bc 537e 51bc
00000040: 2843 10bc e5ca 89bc 0000 0000 2fc2 83bc
00000050: bd37 81bc 0743 82bc c36b 8bbc 6344 8dbc
00000060: 80a7 8bbc a0d0 86bc d037 37bd 267d 8ebc
00000070: 0000 0000 0000 0000 28bf 89bc 0000 0000
0.0 -0.010817012 -0.030723462 -0.016917644 0.0 0.0 -0.016468171 -0.016725479
0.0 0.0 0.0 -0.015984999 -0.016831461 -0.029517759 -0.016835783 -0.012786466
-0.008805074 -0.01682038 0.0 -0.016083805 -0.015773648 -0.015901102 -0.017019158 -0.017244523
-0.017047644 -0.016456902 -0.04473096 -0.01739366 0.0 0.0 -0.016814783 0.0
